<?xml version="1.0" ?>
<net batch="1" name="zwnet_model-0000" version="6">
	<layers>
		<layer id="0" name="data" precision="FP32" type="Input">
			<output>
				<port id="0">
					<dim>1</dim>
					<dim>3</dim>
					<dim>112</dim>
					<dim>112</dim>
				</port>
			</output>
		</layer>
		<layer id="1" name="_mulscalar0/lin_/Fused_Mul_/fused_power" precision="FP32" type="Power">
			<data power="1" scale="0.0078125" shift="-0.99609375"/>
			<input>
				<port id="0">
					<dim>1</dim>
					<dim>3</dim>
					<dim>112</dim>
					<dim>112</dim>
				</port>
			</input>
			<output>
				<port id="1">
					<dim>1</dim>
					<dim>3</dim>
					<dim>112</dim>
					<dim>112</dim>
				</port>
			</output>
		</layer>
		<layer id="2" name="conv_1_conv2d" precision="FP32" type="Convolution">
			<data dilations="1,1" group="1" kernel="3,3" output="32" pads_begin="1,1" pads_end="1,1" strides="2,2"/>
			<input>
				<port id="0">
					<dim>1</dim>
					<dim>3</dim>
					<dim>112</dim>
					<dim>112</dim>
				</port>
			</input>
			<output>
				<port id="3">
					<dim>1</dim>
					<dim>32</dim>
					<dim>56</dim>
					<dim>56</dim>
				</port>
			</output>
			<blobs>
				<weights offset="0" size="3456"/>
				<biases offset="3456" size="128"/>
			</blobs>
		</layer>
		<layer id="3" name="conv_1_relu" precision="FP32" type="PReLU">
			<data channel_shared="0" filler_type="constant" filler_value="0" max="1" mean="0" min="0" sparse="-1" std="0" variance_norm="caffe.FillerParameter.FAN_IN"/>
			<input>
				<port id="0">
					<dim>1</dim>
					<dim>32</dim>
					<dim>56</dim>
					<dim>56</dim>
				</port>
			</input>
			<output>
				<port id="2">
					<dim>1</dim>
					<dim>32</dim>
					<dim>56</dim>
					<dim>56</dim>
				</port>
			</output>
			<blobs>
				<weights offset="3584" size="128"/>
			</blobs>
		</layer>
		<layer id="4" name="conv_2_dw_conv2d" precision="FP32" type="Convolution">
			<data dilations="1,1" group="32" kernel="3,3" output="64" pads_begin="1,1" pads_end="1,1" strides="1,1"/>
			<input>
				<port id="0">
					<dim>1</dim>
					<dim>32</dim>
					<dim>56</dim>
					<dim>56</dim>
				</port>
			</input>
			<output>
				<port id="3">
					<dim>1</dim>
					<dim>64</dim>
					<dim>56</dim>
					<dim>56</dim>
				</port>
			</output>
			<blobs>
				<weights offset="3712" size="2304"/>
				<biases offset="6016" size="256"/>
			</blobs>
		</layer>
		<layer id="5" name="conv_2_dw_relu" precision="FP32" type="PReLU">
			<data channel_shared="0" filler_type="constant" filler_value="0" max="1" mean="0" min="0" sparse="-1" std="0" variance_norm="caffe.FillerParameter.FAN_IN"/>
			<input>
				<port id="0">
					<dim>1</dim>
					<dim>64</dim>
					<dim>56</dim>
					<dim>56</dim>
				</port>
			</input>
			<output>
				<port id="2">
					<dim>1</dim>
					<dim>64</dim>
					<dim>56</dim>
					<dim>56</dim>
				</port>
			</output>
			<blobs>
				<weights offset="6272" size="256"/>
			</blobs>
		</layer>
		<layer id="6" name="dconv_23_conv_sep_conv2d" precision="FP32" type="Convolution">
			<data dilations="1,1" group="1" kernel="1,1" output="64" pads_begin="0,0" pads_end="0,0" strides="1,1"/>
			<input>
				<port id="0">
					<dim>1</dim>
					<dim>64</dim>
					<dim>56</dim>
					<dim>56</dim>
				</port>
			</input>
			<output>
				<port id="3">
					<dim>1</dim>
					<dim>64</dim>
					<dim>56</dim>
					<dim>56</dim>
				</port>
			</output>
			<blobs>
				<weights offset="6528" size="16384"/>
				<biases offset="22912" size="256"/>
			</blobs>
		</layer>
		<layer id="7" name="dconv_23_conv_sep_relu" precision="FP32" type="PReLU">
			<data channel_shared="0" filler_type="constant" filler_value="0" max="1" mean="0" min="0" sparse="-1" std="0" variance_norm="caffe.FillerParameter.FAN_IN"/>
			<input>
				<port id="0">
					<dim>1</dim>
					<dim>64</dim>
					<dim>56</dim>
					<dim>56</dim>
				</port>
			</input>
			<output>
				<port id="2">
					<dim>1</dim>
					<dim>64</dim>
					<dim>56</dim>
					<dim>56</dim>
				</port>
			</output>
			<blobs>
				<weights offset="23168" size="256"/>
			</blobs>
		</layer>
		<layer id="8" name="dconv_23_conv_dw_conv2d" precision="FP32" type="Convolution">
			<data dilations="1,1" group="64" kernel="5,5" output="64" pads_begin="1,1" pads_end="1,1" strides="2,2"/>
			<input>
				<port id="0">
					<dim>1</dim>
					<dim>64</dim>
					<dim>56</dim>
					<dim>56</dim>
				</port>
			</input>
			<output>
				<port id="3">
					<dim>1</dim>
					<dim>64</dim>
					<dim>27</dim>
					<dim>27</dim>
				</port>
			</output>
			<blobs>
				<weights offset="23424" size="6400"/>
				<biases offset="29824" size="256"/>
			</blobs>
		</layer>
		<layer id="9" name="dconv_23_conv_dw_relu" precision="FP32" type="PReLU">
			<data channel_shared="0" filler_type="constant" filler_value="0" max="1" mean="0" min="0" sparse="-1" std="0" variance_norm="caffe.FillerParameter.FAN_IN"/>
			<input>
				<port id="0">
					<dim>1</dim>
					<dim>64</dim>
					<dim>27</dim>
					<dim>27</dim>
				</port>
			</input>
			<output>
				<port id="2">
					<dim>1</dim>
					<dim>64</dim>
					<dim>27</dim>
					<dim>27</dim>
				</port>
			</output>
			<blobs>
				<weights offset="30080" size="256"/>
			</blobs>
		</layer>
		<layer id="10" name="dconv_23_conv_proj_conv2d" precision="FP32" type="Convolution">
			<data dilations="1,1" group="1" kernel="1,1" output="64" pads_begin="0,0" pads_end="0,0" strides="1,1"/>
			<input>
				<port id="0">
					<dim>1</dim>
					<dim>64</dim>
					<dim>27</dim>
					<dim>27</dim>
				</port>
			</input>
			<output>
				<port id="3">
					<dim>1</dim>
					<dim>64</dim>
					<dim>27</dim>
					<dim>27</dim>
				</port>
			</output>
			<blobs>
				<weights offset="30336" size="16384"/>
				<biases offset="46720" size="256"/>
			</blobs>
		</layer>
		<layer id="11" name="res_3_block0_conv_sep_conv2d" precision="FP32" type="Convolution">
			<data dilations="1,1" group="1" kernel="1,1" output="64" pads_begin="0,0" pads_end="0,0" strides="1,1"/>
			<input>
				<port id="0">
					<dim>1</dim>
					<dim>64</dim>
					<dim>27</dim>
					<dim>27</dim>
				</port>
			</input>
			<output>
				<port id="3">
					<dim>1</dim>
					<dim>64</dim>
					<dim>27</dim>
					<dim>27</dim>
				</port>
			</output>
			<blobs>
				<weights offset="46976" size="16384"/>
				<biases offset="63360" size="256"/>
			</blobs>
		</layer>
		<layer id="12" name="res_3_block0_conv_sep_relu" precision="FP32" type="PReLU">
			<data channel_shared="0" filler_type="constant" filler_value="0" max="1" mean="0" min="0" sparse="-1" std="0" variance_norm="caffe.FillerParameter.FAN_IN"/>
			<input>
				<port id="0">
					<dim>1</dim>
					<dim>64</dim>
					<dim>27</dim>
					<dim>27</dim>
				</port>
			</input>
			<output>
				<port id="2">
					<dim>1</dim>
					<dim>64</dim>
					<dim>27</dim>
					<dim>27</dim>
				</port>
			</output>
			<blobs>
				<weights offset="63616" size="256"/>
			</blobs>
		</layer>
		<layer id="13" name="res_3_block0_conv_dw_conv2d" precision="FP32" type="Convolution">
			<data dilations="1,1" group="64" kernel="5,5" output="64" pads_begin="2,2" pads_end="2,2" strides="1,1"/>
			<input>
				<port id="0">
					<dim>1</dim>
					<dim>64</dim>
					<dim>27</dim>
					<dim>27</dim>
				</port>
			</input>
			<output>
				<port id="3">
					<dim>1</dim>
					<dim>64</dim>
					<dim>27</dim>
					<dim>27</dim>
				</port>
			</output>
			<blobs>
				<weights offset="63872" size="6400"/>
				<biases offset="70272" size="256"/>
			</blobs>
		</layer>
		<layer id="14" name="res_3_block0_conv_dw_relu" precision="FP32" type="PReLU">
			<data channel_shared="0" filler_type="constant" filler_value="0" max="1" mean="0" min="0" sparse="-1" std="0" variance_norm="caffe.FillerParameter.FAN_IN"/>
			<input>
				<port id="0">
					<dim>1</dim>
					<dim>64</dim>
					<dim>27</dim>
					<dim>27</dim>
				</port>
			</input>
			<output>
				<port id="2">
					<dim>1</dim>
					<dim>64</dim>
					<dim>27</dim>
					<dim>27</dim>
				</port>
			</output>
			<blobs>
				<weights offset="70528" size="256"/>
			</blobs>
		</layer>
		<layer id="15" name="res_3_block0_conv_proj_conv2d" precision="FP32" type="Convolution">
			<data dilations="1,1" group="1" kernel="1,1" output="64" pads_begin="0,0" pads_end="0,0" strides="1,1"/>
			<input>
				<port id="0">
					<dim>1</dim>
					<dim>64</dim>
					<dim>27</dim>
					<dim>27</dim>
				</port>
			</input>
			<output>
				<port id="3">
					<dim>1</dim>
					<dim>64</dim>
					<dim>27</dim>
					<dim>27</dim>
				</port>
			</output>
			<blobs>
				<weights offset="70784" size="16384"/>
				<biases offset="87168" size="256"/>
			</blobs>
		</layer>
		<layer id="16" name="_plus0" precision="FP32" type="Eltwise">
			<data operation="sum"/>
			<input>
				<port id="0">
					<dim>1</dim>
					<dim>64</dim>
					<dim>27</dim>
					<dim>27</dim>
				</port>
				<port id="1">
					<dim>1</dim>
					<dim>64</dim>
					<dim>27</dim>
					<dim>27</dim>
				</port>
			</input>
			<output>
				<port id="2">
					<dim>1</dim>
					<dim>64</dim>
					<dim>27</dim>
					<dim>27</dim>
				</port>
			</output>
		</layer>
		<layer id="17" name="res_3_block1_conv_sep_conv2d" precision="FP32" type="Convolution">
			<data dilations="1,1" group="1" kernel="1,1" output="64" pads_begin="0,0" pads_end="0,0" strides="1,1"/>
			<input>
				<port id="0">
					<dim>1</dim>
					<dim>64</dim>
					<dim>27</dim>
					<dim>27</dim>
				</port>
			</input>
			<output>
				<port id="3">
					<dim>1</dim>
					<dim>64</dim>
					<dim>27</dim>
					<dim>27</dim>
				</port>
			</output>
			<blobs>
				<weights offset="87424" size="16384"/>
				<biases offset="103808" size="256"/>
			</blobs>
		</layer>
		<layer id="18" name="res_3_block1_conv_sep_relu" precision="FP32" type="PReLU">
			<data channel_shared="0" filler_type="constant" filler_value="0" max="1" mean="0" min="0" sparse="-1" std="0" variance_norm="caffe.FillerParameter.FAN_IN"/>
			<input>
				<port id="0">
					<dim>1</dim>
					<dim>64</dim>
					<dim>27</dim>
					<dim>27</dim>
				</port>
			</input>
			<output>
				<port id="2">
					<dim>1</dim>
					<dim>64</dim>
					<dim>27</dim>
					<dim>27</dim>
				</port>
			</output>
			<blobs>
				<weights offset="104064" size="256"/>
			</blobs>
		</layer>
		<layer id="19" name="res_3_block1_conv_dw_conv2d" precision="FP32" type="Convolution">
			<data dilations="1,1" group="64" kernel="5,5" output="64" pads_begin="2,2" pads_end="2,2" strides="1,1"/>
			<input>
				<port id="0">
					<dim>1</dim>
					<dim>64</dim>
					<dim>27</dim>
					<dim>27</dim>
				</port>
			</input>
			<output>
				<port id="3">
					<dim>1</dim>
					<dim>64</dim>
					<dim>27</dim>
					<dim>27</dim>
				</port>
			</output>
			<blobs>
				<weights offset="104320" size="6400"/>
				<biases offset="110720" size="256"/>
			</blobs>
		</layer>
		<layer id="20" name="res_3_block1_conv_dw_relu" precision="FP32" type="PReLU">
			<data channel_shared="0" filler_type="constant" filler_value="0" max="1" mean="0" min="0" sparse="-1" std="0" variance_norm="caffe.FillerParameter.FAN_IN"/>
			<input>
				<port id="0">
					<dim>1</dim>
					<dim>64</dim>
					<dim>27</dim>
					<dim>27</dim>
				</port>
			</input>
			<output>
				<port id="2">
					<dim>1</dim>
					<dim>64</dim>
					<dim>27</dim>
					<dim>27</dim>
				</port>
			</output>
			<blobs>
				<weights offset="110976" size="256"/>
			</blobs>
		</layer>
		<layer id="21" name="res_3_block1_conv_proj_conv2d" precision="FP32" type="Convolution">
			<data dilations="1,1" group="1" kernel="1,1" output="64" pads_begin="0,0" pads_end="0,0" strides="1,1"/>
			<input>
				<port id="0">
					<dim>1</dim>
					<dim>64</dim>
					<dim>27</dim>
					<dim>27</dim>
				</port>
			</input>
			<output>
				<port id="3">
					<dim>1</dim>
					<dim>64</dim>
					<dim>27</dim>
					<dim>27</dim>
				</port>
			</output>
			<blobs>
				<weights offset="111232" size="16384"/>
				<biases offset="127616" size="256"/>
			</blobs>
		</layer>
		<layer id="22" name="_plus1" precision="FP32" type="Eltwise">
			<data operation="sum"/>
			<input>
				<port id="0">
					<dim>1</dim>
					<dim>64</dim>
					<dim>27</dim>
					<dim>27</dim>
				</port>
				<port id="1">
					<dim>1</dim>
					<dim>64</dim>
					<dim>27</dim>
					<dim>27</dim>
				</port>
			</input>
			<output>
				<port id="2">
					<dim>1</dim>
					<dim>64</dim>
					<dim>27</dim>
					<dim>27</dim>
				</port>
			</output>
		</layer>
		<layer id="23" name="res_3_block2_conv_sep_conv2d" precision="FP32" type="Convolution">
			<data dilations="1,1" group="1" kernel="1,1" output="64" pads_begin="0,0" pads_end="0,0" strides="1,1"/>
			<input>
				<port id="0">
					<dim>1</dim>
					<dim>64</dim>
					<dim>27</dim>
					<dim>27</dim>
				</port>
			</input>
			<output>
				<port id="3">
					<dim>1</dim>
					<dim>64</dim>
					<dim>27</dim>
					<dim>27</dim>
				</port>
			</output>
			<blobs>
				<weights offset="127872" size="16384"/>
				<biases offset="144256" size="256"/>
			</blobs>
		</layer>
		<layer id="24" name="res_3_block2_conv_sep_relu" precision="FP32" type="PReLU">
			<data channel_shared="0" filler_type="constant" filler_value="0" max="1" mean="0" min="0" sparse="-1" std="0" variance_norm="caffe.FillerParameter.FAN_IN"/>
			<input>
				<port id="0">
					<dim>1</dim>
					<dim>64</dim>
					<dim>27</dim>
					<dim>27</dim>
				</port>
			</input>
			<output>
				<port id="2">
					<dim>1</dim>
					<dim>64</dim>
					<dim>27</dim>
					<dim>27</dim>
				</port>
			</output>
			<blobs>
				<weights offset="144512" size="256"/>
			</blobs>
		</layer>
		<layer id="25" name="res_3_block2_conv_dw_conv2d" precision="FP32" type="Convolution">
			<data dilations="1,1" group="64" kernel="5,5" output="64" pads_begin="2,2" pads_end="2,2" strides="1,1"/>
			<input>
				<port id="0">
					<dim>1</dim>
					<dim>64</dim>
					<dim>27</dim>
					<dim>27</dim>
				</port>
			</input>
			<output>
				<port id="3">
					<dim>1</dim>
					<dim>64</dim>
					<dim>27</dim>
					<dim>27</dim>
				</port>
			</output>
			<blobs>
				<weights offset="144768" size="6400"/>
				<biases offset="151168" size="256"/>
			</blobs>
		</layer>
		<layer id="26" name="res_3_block2_conv_dw_relu" precision="FP32" type="PReLU">
			<data channel_shared="0" filler_type="constant" filler_value="0" max="1" mean="0" min="0" sparse="-1" std="0" variance_norm="caffe.FillerParameter.FAN_IN"/>
			<input>
				<port id="0">
					<dim>1</dim>
					<dim>64</dim>
					<dim>27</dim>
					<dim>27</dim>
				</port>
			</input>
			<output>
				<port id="2">
					<dim>1</dim>
					<dim>64</dim>
					<dim>27</dim>
					<dim>27</dim>
				</port>
			</output>
			<blobs>
				<weights offset="151424" size="256"/>
			</blobs>
		</layer>
		<layer id="27" name="res_3_block2_conv_proj_conv2d" precision="FP32" type="Convolution">
			<data dilations="1,1" group="1" kernel="1,1" output="64" pads_begin="0,0" pads_end="0,0" strides="1,1"/>
			<input>
				<port id="0">
					<dim>1</dim>
					<dim>64</dim>
					<dim>27</dim>
					<dim>27</dim>
				</port>
			</input>
			<output>
				<port id="3">
					<dim>1</dim>
					<dim>64</dim>
					<dim>27</dim>
					<dim>27</dim>
				</port>
			</output>
			<blobs>
				<weights offset="151680" size="16384"/>
				<biases offset="168064" size="256"/>
			</blobs>
		</layer>
		<layer id="28" name="_plus2" precision="FP32" type="Eltwise">
			<data operation="sum"/>
			<input>
				<port id="0">
					<dim>1</dim>
					<dim>64</dim>
					<dim>27</dim>
					<dim>27</dim>
				</port>
				<port id="1">
					<dim>1</dim>
					<dim>64</dim>
					<dim>27</dim>
					<dim>27</dim>
				</port>
			</input>
			<output>
				<port id="2">
					<dim>1</dim>
					<dim>64</dim>
					<dim>27</dim>
					<dim>27</dim>
				</port>
			</output>
		</layer>
		<layer id="29" name="conv_34_block0_conv_sep_conv2d" precision="FP32" type="Convolution">
			<data dilations="1,1" group="1" kernel="1,1" output="90" pads_begin="0,0" pads_end="0,0" strides="1,1"/>
			<input>
				<port id="0">
					<dim>1</dim>
					<dim>64</dim>
					<dim>27</dim>
					<dim>27</dim>
				</port>
			</input>
			<output>
				<port id="3">
					<dim>1</dim>
					<dim>90</dim>
					<dim>27</dim>
					<dim>27</dim>
				</port>
			</output>
			<blobs>
				<weights offset="168320" size="23040"/>
				<biases offset="191360" size="360"/>
			</blobs>
		</layer>
		<layer id="30" name="conv_34_block0_conv_sep_relu" precision="FP32" type="PReLU">
			<data channel_shared="0" filler_type="constant" filler_value="0" max="1" mean="0" min="0" sparse="-1" std="0" variance_norm="caffe.FillerParameter.FAN_IN"/>
			<input>
				<port id="0">
					<dim>1</dim>
					<dim>90</dim>
					<dim>27</dim>
					<dim>27</dim>
				</port>
			</input>
			<output>
				<port id="2">
					<dim>1</dim>
					<dim>90</dim>
					<dim>27</dim>
					<dim>27</dim>
				</port>
			</output>
			<blobs>
				<weights offset="191720" size="360"/>
			</blobs>
		</layer>
		<layer id="31" name="conv_34_block0_conv_dw_conv2d" precision="FP32" type="Convolution">
			<data dilations="1,1" group="90" kernel="3,3" output="90" pads_begin="1,1" pads_end="1,1" strides="1,1"/>
			<input>
				<port id="0">
					<dim>1</dim>
					<dim>90</dim>
					<dim>27</dim>
					<dim>27</dim>
				</port>
			</input>
			<output>
				<port id="3">
					<dim>1</dim>
					<dim>90</dim>
					<dim>27</dim>
					<dim>27</dim>
				</port>
			</output>
			<blobs>
				<weights offset="192080" size="3240"/>
				<biases offset="195320" size="360"/>
			</blobs>
		</layer>
		<layer id="32" name="conv_34_block0_conv_dw_relu" precision="FP32" type="PReLU">
			<data channel_shared="0" filler_type="constant" filler_value="0" max="1" mean="0" min="0" sparse="-1" std="0" variance_norm="caffe.FillerParameter.FAN_IN"/>
			<input>
				<port id="0">
					<dim>1</dim>
					<dim>90</dim>
					<dim>27</dim>
					<dim>27</dim>
				</port>
			</input>
			<output>
				<port id="2">
					<dim>1</dim>
					<dim>90</dim>
					<dim>27</dim>
					<dim>27</dim>
				</port>
			</output>
			<blobs>
				<weights offset="195680" size="360"/>
			</blobs>
		</layer>
		<layer id="33" name="conv_34_block0_conv_proj_conv2d" precision="FP32" type="Convolution">
			<data dilations="1,1" group="1" kernel="1,1" output="64" pads_begin="0,0" pads_end="0,0" strides="1,1"/>
			<input>
				<port id="0">
					<dim>1</dim>
					<dim>90</dim>
					<dim>27</dim>
					<dim>27</dim>
				</port>
			</input>
			<output>
				<port id="3">
					<dim>1</dim>
					<dim>64</dim>
					<dim>27</dim>
					<dim>27</dim>
				</port>
			</output>
			<blobs>
				<weights offset="196040" size="23040"/>
				<biases offset="219080" size="256"/>
			</blobs>
		</layer>
		<layer id="34" name="_plus3" precision="FP32" type="Eltwise">
			<data operation="sum"/>
			<input>
				<port id="0">
					<dim>1</dim>
					<dim>64</dim>
					<dim>27</dim>
					<dim>27</dim>
				</port>
				<port id="1">
					<dim>1</dim>
					<dim>64</dim>
					<dim>27</dim>
					<dim>27</dim>
				</port>
			</input>
			<output>
				<port id="2">
					<dim>1</dim>
					<dim>64</dim>
					<dim>27</dim>
					<dim>27</dim>
				</port>
			</output>
		</layer>
		<layer id="35" name="conv_34_block1_conv_sep_conv2d" precision="FP32" type="Convolution">
			<data dilations="1,1" group="1" kernel="1,1" output="90" pads_begin="0,0" pads_end="0,0" strides="1,1"/>
			<input>
				<port id="0">
					<dim>1</dim>
					<dim>64</dim>
					<dim>27</dim>
					<dim>27</dim>
				</port>
			</input>
			<output>
				<port id="3">
					<dim>1</dim>
					<dim>90</dim>
					<dim>27</dim>
					<dim>27</dim>
				</port>
			</output>
			<blobs>
				<weights offset="219336" size="23040"/>
				<biases offset="242376" size="360"/>
			</blobs>
		</layer>
		<layer id="36" name="conv_34_block1_conv_sep_relu" precision="FP32" type="PReLU">
			<data channel_shared="0" filler_type="constant" filler_value="0" max="1" mean="0" min="0" sparse="-1" std="0" variance_norm="caffe.FillerParameter.FAN_IN"/>
			<input>
				<port id="0">
					<dim>1</dim>
					<dim>90</dim>
					<dim>27</dim>
					<dim>27</dim>
				</port>
			</input>
			<output>
				<port id="2">
					<dim>1</dim>
					<dim>90</dim>
					<dim>27</dim>
					<dim>27</dim>
				</port>
			</output>
			<blobs>
				<weights offset="242736" size="360"/>
			</blobs>
		</layer>
		<layer id="37" name="conv_34_block1_conv_dw_conv2d" precision="FP32" type="Convolution">
			<data dilations="1,1" group="90" kernel="3,3" output="90" pads_begin="1,1" pads_end="1,1" strides="1,1"/>
			<input>
				<port id="0">
					<dim>1</dim>
					<dim>90</dim>
					<dim>27</dim>
					<dim>27</dim>
				</port>
			</input>
			<output>
				<port id="3">
					<dim>1</dim>
					<dim>90</dim>
					<dim>27</dim>
					<dim>27</dim>
				</port>
			</output>
			<blobs>
				<weights offset="243096" size="3240"/>
				<biases offset="246336" size="360"/>
			</blobs>
		</layer>
		<layer id="38" name="conv_34_block1_conv_dw_relu" precision="FP32" type="PReLU">
			<data channel_shared="0" filler_type="constant" filler_value="0" max="1" mean="0" min="0" sparse="-1" std="0" variance_norm="caffe.FillerParameter.FAN_IN"/>
			<input>
				<port id="0">
					<dim>1</dim>
					<dim>90</dim>
					<dim>27</dim>
					<dim>27</dim>
				</port>
			</input>
			<output>
				<port id="2">
					<dim>1</dim>
					<dim>90</dim>
					<dim>27</dim>
					<dim>27</dim>
				</port>
			</output>
			<blobs>
				<weights offset="246696" size="360"/>
			</blobs>
		</layer>
		<layer id="39" name="conv_34_block1_conv_proj_conv2d" precision="FP32" type="Convolution">
			<data dilations="1,1" group="1" kernel="1,1" output="64" pads_begin="0,0" pads_end="0,0" strides="1,1"/>
			<input>
				<port id="0">
					<dim>1</dim>
					<dim>90</dim>
					<dim>27</dim>
					<dim>27</dim>
				</port>
			</input>
			<output>
				<port id="3">
					<dim>1</dim>
					<dim>64</dim>
					<dim>27</dim>
					<dim>27</dim>
				</port>
			</output>
			<blobs>
				<weights offset="247056" size="23040"/>
				<biases offset="270096" size="256"/>
			</blobs>
		</layer>
		<layer id="40" name="_plus4" precision="FP32" type="Eltwise">
			<data operation="sum"/>
			<input>
				<port id="0">
					<dim>1</dim>
					<dim>64</dim>
					<dim>27</dim>
					<dim>27</dim>
				</port>
				<port id="1">
					<dim>1</dim>
					<dim>64</dim>
					<dim>27</dim>
					<dim>27</dim>
				</port>
			</input>
			<output>
				<port id="2">
					<dim>1</dim>
					<dim>64</dim>
					<dim>27</dim>
					<dim>27</dim>
				</port>
			</output>
		</layer>
		<layer id="41" name="conv_34_block2_conv_sep_conv2d" precision="FP32" type="Convolution">
			<data dilations="1,1" group="1" kernel="1,1" output="90" pads_begin="0,0" pads_end="0,0" strides="1,1"/>
			<input>
				<port id="0">
					<dim>1</dim>
					<dim>64</dim>
					<dim>27</dim>
					<dim>27</dim>
				</port>
			</input>
			<output>
				<port id="3">
					<dim>1</dim>
					<dim>90</dim>
					<dim>27</dim>
					<dim>27</dim>
				</port>
			</output>
			<blobs>
				<weights offset="270352" size="23040"/>
				<biases offset="293392" size="360"/>
			</blobs>
		</layer>
		<layer id="42" name="conv_34_block2_conv_sep_relu" precision="FP32" type="PReLU">
			<data channel_shared="0" filler_type="constant" filler_value="0" max="1" mean="0" min="0" sparse="-1" std="0" variance_norm="caffe.FillerParameter.FAN_IN"/>
			<input>
				<port id="0">
					<dim>1</dim>
					<dim>90</dim>
					<dim>27</dim>
					<dim>27</dim>
				</port>
			</input>
			<output>
				<port id="2">
					<dim>1</dim>
					<dim>90</dim>
					<dim>27</dim>
					<dim>27</dim>
				</port>
			</output>
			<blobs>
				<weights offset="293752" size="360"/>
			</blobs>
		</layer>
		<layer id="43" name="conv_34_block2_conv_dw_conv2d" precision="FP32" type="Convolution">
			<data dilations="1,1" group="90" kernel="3,3" output="90" pads_begin="1,1" pads_end="1,1" strides="1,1"/>
			<input>
				<port id="0">
					<dim>1</dim>
					<dim>90</dim>
					<dim>27</dim>
					<dim>27</dim>
				</port>
			</input>
			<output>
				<port id="3">
					<dim>1</dim>
					<dim>90</dim>
					<dim>27</dim>
					<dim>27</dim>
				</port>
			</output>
			<blobs>
				<weights offset="294112" size="3240"/>
				<biases offset="297352" size="360"/>
			</blobs>
		</layer>
		<layer id="44" name="conv_34_block2_conv_dw_relu" precision="FP32" type="PReLU">
			<data channel_shared="0" filler_type="constant" filler_value="0" max="1" mean="0" min="0" sparse="-1" std="0" variance_norm="caffe.FillerParameter.FAN_IN"/>
			<input>
				<port id="0">
					<dim>1</dim>
					<dim>90</dim>
					<dim>27</dim>
					<dim>27</dim>
				</port>
			</input>
			<output>
				<port id="2">
					<dim>1</dim>
					<dim>90</dim>
					<dim>27</dim>
					<dim>27</dim>
				</port>
			</output>
			<blobs>
				<weights offset="297712" size="360"/>
			</blobs>
		</layer>
		<layer id="45" name="conv_34_block2_conv_proj_conv2d" precision="FP32" type="Convolution">
			<data dilations="1,1" group="1" kernel="1,1" output="64" pads_begin="0,0" pads_end="0,0" strides="1,1"/>
			<input>
				<port id="0">
					<dim>1</dim>
					<dim>90</dim>
					<dim>27</dim>
					<dim>27</dim>
				</port>
			</input>
			<output>
				<port id="3">
					<dim>1</dim>
					<dim>64</dim>
					<dim>27</dim>
					<dim>27</dim>
				</port>
			</output>
			<blobs>
				<weights offset="298072" size="23040"/>
				<biases offset="321112" size="256"/>
			</blobs>
		</layer>
		<layer id="46" name="_plus5" precision="FP32" type="Eltwise">
			<data operation="sum"/>
			<input>
				<port id="0">
					<dim>1</dim>
					<dim>64</dim>
					<dim>27</dim>
					<dim>27</dim>
				</port>
				<port id="1">
					<dim>1</dim>
					<dim>64</dim>
					<dim>27</dim>
					<dim>27</dim>
				</port>
			</input>
			<output>
				<port id="2">
					<dim>1</dim>
					<dim>64</dim>
					<dim>27</dim>
					<dim>27</dim>
				</port>
			</output>
		</layer>
		<layer id="47" name="conv_34_block3_conv_sep_conv2d" precision="FP32" type="Convolution">
			<data dilations="1,1" group="1" kernel="1,1" output="90" pads_begin="0,0" pads_end="0,0" strides="1,1"/>
			<input>
				<port id="0">
					<dim>1</dim>
					<dim>64</dim>
					<dim>27</dim>
					<dim>27</dim>
				</port>
			</input>
			<output>
				<port id="3">
					<dim>1</dim>
					<dim>90</dim>
					<dim>27</dim>
					<dim>27</dim>
				</port>
			</output>
			<blobs>
				<weights offset="321368" size="23040"/>
				<biases offset="344408" size="360"/>
			</blobs>
		</layer>
		<layer id="48" name="conv_34_block3_conv_sep_relu" precision="FP32" type="PReLU">
			<data channel_shared="0" filler_type="constant" filler_value="0" max="1" mean="0" min="0" sparse="-1" std="0" variance_norm="caffe.FillerParameter.FAN_IN"/>
			<input>
				<port id="0">
					<dim>1</dim>
					<dim>90</dim>
					<dim>27</dim>
					<dim>27</dim>
				</port>
			</input>
			<output>
				<port id="2">
					<dim>1</dim>
					<dim>90</dim>
					<dim>27</dim>
					<dim>27</dim>
				</port>
			</output>
			<blobs>
				<weights offset="344768" size="360"/>
			</blobs>
		</layer>
		<layer id="49" name="conv_34_block3_conv_dw_conv2d" precision="FP32" type="Convolution">
			<data dilations="1,1" group="90" kernel="3,3" output="90" pads_begin="1,1" pads_end="1,1" strides="1,1"/>
			<input>
				<port id="0">
					<dim>1</dim>
					<dim>90</dim>
					<dim>27</dim>
					<dim>27</dim>
				</port>
			</input>
			<output>
				<port id="3">
					<dim>1</dim>
					<dim>90</dim>
					<dim>27</dim>
					<dim>27</dim>
				</port>
			</output>
			<blobs>
				<weights offset="345128" size="3240"/>
				<biases offset="348368" size="360"/>
			</blobs>
		</layer>
		<layer id="50" name="conv_34_block3_conv_dw_relu" precision="FP32" type="PReLU">
			<data channel_shared="0" filler_type="constant" filler_value="0" max="1" mean="0" min="0" sparse="-1" std="0" variance_norm="caffe.FillerParameter.FAN_IN"/>
			<input>
				<port id="0">
					<dim>1</dim>
					<dim>90</dim>
					<dim>27</dim>
					<dim>27</dim>
				</port>
			</input>
			<output>
				<port id="2">
					<dim>1</dim>
					<dim>90</dim>
					<dim>27</dim>
					<dim>27</dim>
				</port>
			</output>
			<blobs>
				<weights offset="348728" size="360"/>
			</blobs>
		</layer>
		<layer id="51" name="conv_34_block3_conv_proj_conv2d" precision="FP32" type="Convolution">
			<data dilations="1,1" group="1" kernel="1,1" output="64" pads_begin="0,0" pads_end="0,0" strides="1,1"/>
			<input>
				<port id="0">
					<dim>1</dim>
					<dim>90</dim>
					<dim>27</dim>
					<dim>27</dim>
				</port>
			</input>
			<output>
				<port id="3">
					<dim>1</dim>
					<dim>64</dim>
					<dim>27</dim>
					<dim>27</dim>
				</port>
			</output>
			<blobs>
				<weights offset="349088" size="23040"/>
				<biases offset="372128" size="256"/>
			</blobs>
		</layer>
		<layer id="52" name="_plus6" precision="FP32" type="Eltwise">
			<data operation="sum"/>
			<input>
				<port id="0">
					<dim>1</dim>
					<dim>64</dim>
					<dim>27</dim>
					<dim>27</dim>
				</port>
				<port id="1">
					<dim>1</dim>
					<dim>64</dim>
					<dim>27</dim>
					<dim>27</dim>
				</port>
			</input>
			<output>
				<port id="2">
					<dim>1</dim>
					<dim>64</dim>
					<dim>27</dim>
					<dim>27</dim>
				</port>
			</output>
		</layer>
		<layer id="53" name="dconv_35_conv_sep_conv2d" precision="FP32" type="Convolution">
			<data dilations="1,1" group="1" kernel="1,1" output="180" pads_begin="0,0" pads_end="0,0" strides="1,1"/>
			<input>
				<port id="0">
					<dim>1</dim>
					<dim>64</dim>
					<dim>27</dim>
					<dim>27</dim>
				</port>
			</input>
			<output>
				<port id="3">
					<dim>1</dim>
					<dim>180</dim>
					<dim>27</dim>
					<dim>27</dim>
				</port>
			</output>
			<blobs>
				<weights offset="372384" size="46080"/>
				<biases offset="418464" size="720"/>
			</blobs>
		</layer>
		<layer id="54" name="dconv_35_conv_sep_relu" precision="FP32" type="PReLU">
			<data channel_shared="0" filler_type="constant" filler_value="0" max="1" mean="0" min="0" sparse="-1" std="0" variance_norm="caffe.FillerParameter.FAN_IN"/>
			<input>
				<port id="0">
					<dim>1</dim>
					<dim>180</dim>
					<dim>27</dim>
					<dim>27</dim>
				</port>
			</input>
			<output>
				<port id="2">
					<dim>1</dim>
					<dim>180</dim>
					<dim>27</dim>
					<dim>27</dim>
				</port>
			</output>
			<blobs>
				<weights offset="419184" size="720"/>
			</blobs>
		</layer>
		<layer id="55" name="dconv_35_conv_dw_conv2d" precision="FP32" type="Convolution">
			<data dilations="1,1" group="180" kernel="5,5" output="180" pads_begin="1,1" pads_end="1,1" strides="2,2"/>
			<input>
				<port id="0">
					<dim>1</dim>
					<dim>180</dim>
					<dim>27</dim>
					<dim>27</dim>
				</port>
			</input>
			<output>
				<port id="3">
					<dim>1</dim>
					<dim>180</dim>
					<dim>13</dim>
					<dim>13</dim>
				</port>
			</output>
			<blobs>
				<weights offset="419904" size="18000"/>
				<biases offset="437904" size="720"/>
			</blobs>
		</layer>
		<layer id="56" name="dconv_35_conv_dw_relu" precision="FP32" type="PReLU">
			<data channel_shared="0" filler_type="constant" filler_value="0" max="1" mean="0" min="0" sparse="-1" std="0" variance_norm="caffe.FillerParameter.FAN_IN"/>
			<input>
				<port id="0">
					<dim>1</dim>
					<dim>180</dim>
					<dim>13</dim>
					<dim>13</dim>
				</port>
			</input>
			<output>
				<port id="2">
					<dim>1</dim>
					<dim>180</dim>
					<dim>13</dim>
					<dim>13</dim>
				</port>
			</output>
			<blobs>
				<weights offset="438624" size="720"/>
			</blobs>
		</layer>
		<layer id="57" name="dconv_35_conv_proj_conv2d" precision="FP32" type="Convolution">
			<data dilations="1,1" group="1" kernel="1,1" output="128" pads_begin="0,0" pads_end="0,0" strides="1,1"/>
			<input>
				<port id="0">
					<dim>1</dim>
					<dim>180</dim>
					<dim>13</dim>
					<dim>13</dim>
				</port>
			</input>
			<output>
				<port id="3">
					<dim>1</dim>
					<dim>128</dim>
					<dim>13</dim>
					<dim>13</dim>
				</port>
			</output>
			<blobs>
				<weights offset="439344" size="92160"/>
				<biases offset="531504" size="512"/>
			</blobs>
		</layer>
		<layer id="58" name="res_4_block0_conv_sep_conv2d" precision="FP32" type="Convolution">
			<data dilations="1,1" group="1" kernel="1,1" output="256" pads_begin="0,0" pads_end="0,0" strides="1,1"/>
			<input>
				<port id="0">
					<dim>1</dim>
					<dim>128</dim>
					<dim>13</dim>
					<dim>13</dim>
				</port>
			</input>
			<output>
				<port id="3">
					<dim>1</dim>
					<dim>256</dim>
					<dim>13</dim>
					<dim>13</dim>
				</port>
			</output>
			<blobs>
				<weights offset="532016" size="131072"/>
				<biases offset="663088" size="1024"/>
			</blobs>
		</layer>
		<layer id="59" name="res_4_block0_conv_sep_relu" precision="FP32" type="PReLU">
			<data channel_shared="0" filler_type="constant" filler_value="0" max="1" mean="0" min="0" sparse="-1" std="0" variance_norm="caffe.FillerParameter.FAN_IN"/>
			<input>
				<port id="0">
					<dim>1</dim>
					<dim>256</dim>
					<dim>13</dim>
					<dim>13</dim>
				</port>
			</input>
			<output>
				<port id="2">
					<dim>1</dim>
					<dim>256</dim>
					<dim>13</dim>
					<dim>13</dim>
				</port>
			</output>
			<blobs>
				<weights offset="664112" size="1024"/>
			</blobs>
		</layer>
		<layer id="60" name="res_4_block0_conv_dw_conv2d" precision="FP32" type="Convolution">
			<data dilations="1,1" group="256" kernel="3,3" output="256" pads_begin="1,1" pads_end="1,1" strides="1,1"/>
			<input>
				<port id="0">
					<dim>1</dim>
					<dim>256</dim>
					<dim>13</dim>
					<dim>13</dim>
				</port>
			</input>
			<output>
				<port id="3">
					<dim>1</dim>
					<dim>256</dim>
					<dim>13</dim>
					<dim>13</dim>
				</port>
			</output>
			<blobs>
				<weights offset="665136" size="9216"/>
				<biases offset="674352" size="1024"/>
			</blobs>
		</layer>
		<layer id="61" name="res_4_block0_conv_dw_relu" precision="FP32" type="PReLU">
			<data channel_shared="0" filler_type="constant" filler_value="0" max="1" mean="0" min="0" sparse="-1" std="0" variance_norm="caffe.FillerParameter.FAN_IN"/>
			<input>
				<port id="0">
					<dim>1</dim>
					<dim>256</dim>
					<dim>13</dim>
					<dim>13</dim>
				</port>
			</input>
			<output>
				<port id="2">
					<dim>1</dim>
					<dim>256</dim>
					<dim>13</dim>
					<dim>13</dim>
				</port>
			</output>
			<blobs>
				<weights offset="675376" size="1024"/>
			</blobs>
		</layer>
		<layer id="62" name="res_4_block0_conv_proj_conv2d" precision="FP32" type="Convolution">
			<data dilations="1,1" group="1" kernel="1,1" output="128" pads_begin="0,0" pads_end="0,0" strides="1,1"/>
			<input>
				<port id="0">
					<dim>1</dim>
					<dim>256</dim>
					<dim>13</dim>
					<dim>13</dim>
				</port>
			</input>
			<output>
				<port id="3">
					<dim>1</dim>
					<dim>128</dim>
					<dim>13</dim>
					<dim>13</dim>
				</port>
			</output>
			<blobs>
				<weights offset="676400" size="131072"/>
				<biases offset="807472" size="512"/>
			</blobs>
		</layer>
		<layer id="63" name="_plus7" precision="FP32" type="Eltwise">
			<data operation="sum"/>
			<input>
				<port id="0">
					<dim>1</dim>
					<dim>128</dim>
					<dim>13</dim>
					<dim>13</dim>
				</port>
				<port id="1">
					<dim>1</dim>
					<dim>128</dim>
					<dim>13</dim>
					<dim>13</dim>
				</port>
			</input>
			<output>
				<port id="2">
					<dim>1</dim>
					<dim>128</dim>
					<dim>13</dim>
					<dim>13</dim>
				</port>
			</output>
		</layer>
		<layer id="64" name="res_4_block1_conv_sep_conv2d" precision="FP32" type="Convolution">
			<data dilations="1,1" group="1" kernel="1,1" output="256" pads_begin="0,0" pads_end="0,0" strides="1,1"/>
			<input>
				<port id="0">
					<dim>1</dim>
					<dim>128</dim>
					<dim>13</dim>
					<dim>13</dim>
				</port>
			</input>
			<output>
				<port id="3">
					<dim>1</dim>
					<dim>256</dim>
					<dim>13</dim>
					<dim>13</dim>
				</port>
			</output>
			<blobs>
				<weights offset="807984" size="131072"/>
				<biases offset="939056" size="1024"/>
			</blobs>
		</layer>
		<layer id="65" name="res_4_block1_conv_sep_relu" precision="FP32" type="PReLU">
			<data channel_shared="0" filler_type="constant" filler_value="0" max="1" mean="0" min="0" sparse="-1" std="0" variance_norm="caffe.FillerParameter.FAN_IN"/>
			<input>
				<port id="0">
					<dim>1</dim>
					<dim>256</dim>
					<dim>13</dim>
					<dim>13</dim>
				</port>
			</input>
			<output>
				<port id="2">
					<dim>1</dim>
					<dim>256</dim>
					<dim>13</dim>
					<dim>13</dim>
				</port>
			</output>
			<blobs>
				<weights offset="940080" size="1024"/>
			</blobs>
		</layer>
		<layer id="66" name="res_4_block1_conv_dw_conv2d" precision="FP32" type="Convolution">
			<data dilations="1,1" group="256" kernel="3,3" output="256" pads_begin="1,1" pads_end="1,1" strides="1,1"/>
			<input>
				<port id="0">
					<dim>1</dim>
					<dim>256</dim>
					<dim>13</dim>
					<dim>13</dim>
				</port>
			</input>
			<output>
				<port id="3">
					<dim>1</dim>
					<dim>256</dim>
					<dim>13</dim>
					<dim>13</dim>
				</port>
			</output>
			<blobs>
				<weights offset="941104" size="9216"/>
				<biases offset="950320" size="1024"/>
			</blobs>
		</layer>
		<layer id="67" name="res_4_block1_conv_dw_relu" precision="FP32" type="PReLU">
			<data channel_shared="0" filler_type="constant" filler_value="0" max="1" mean="0" min="0" sparse="-1" std="0" variance_norm="caffe.FillerParameter.FAN_IN"/>
			<input>
				<port id="0">
					<dim>1</dim>
					<dim>256</dim>
					<dim>13</dim>
					<dim>13</dim>
				</port>
			</input>
			<output>
				<port id="2">
					<dim>1</dim>
					<dim>256</dim>
					<dim>13</dim>
					<dim>13</dim>
				</port>
			</output>
			<blobs>
				<weights offset="951344" size="1024"/>
			</blobs>
		</layer>
		<layer id="68" name="res_4_block1_conv_proj_conv2d" precision="FP32" type="Convolution">
			<data dilations="1,1" group="1" kernel="1,1" output="128" pads_begin="0,0" pads_end="0,0" strides="1,1"/>
			<input>
				<port id="0">
					<dim>1</dim>
					<dim>256</dim>
					<dim>13</dim>
					<dim>13</dim>
				</port>
			</input>
			<output>
				<port id="3">
					<dim>1</dim>
					<dim>128</dim>
					<dim>13</dim>
					<dim>13</dim>
				</port>
			</output>
			<blobs>
				<weights offset="952368" size="131072"/>
				<biases offset="1083440" size="512"/>
			</blobs>
		</layer>
		<layer id="69" name="_plus8" precision="FP32" type="Eltwise">
			<data operation="sum"/>
			<input>
				<port id="0">
					<dim>1</dim>
					<dim>128</dim>
					<dim>13</dim>
					<dim>13</dim>
				</port>
				<port id="1">
					<dim>1</dim>
					<dim>128</dim>
					<dim>13</dim>
					<dim>13</dim>
				</port>
			</input>
			<output>
				<port id="2">
					<dim>1</dim>
					<dim>128</dim>
					<dim>13</dim>
					<dim>13</dim>
				</port>
			</output>
		</layer>
		<layer id="70" name="res_4_block2_conv_sep_conv2d" precision="FP32" type="Convolution">
			<data dilations="1,1" group="1" kernel="1,1" output="256" pads_begin="0,0" pads_end="0,0" strides="1,1"/>
			<input>
				<port id="0">
					<dim>1</dim>
					<dim>128</dim>
					<dim>13</dim>
					<dim>13</dim>
				</port>
			</input>
			<output>
				<port id="3">
					<dim>1</dim>
					<dim>256</dim>
					<dim>13</dim>
					<dim>13</dim>
				</port>
			</output>
			<blobs>
				<weights offset="1083952" size="131072"/>
				<biases offset="1215024" size="1024"/>
			</blobs>
		</layer>
		<layer id="71" name="res_4_block2_conv_sep_relu" precision="FP32" type="PReLU">
			<data channel_shared="0" filler_type="constant" filler_value="0" max="1" mean="0" min="0" sparse="-1" std="0" variance_norm="caffe.FillerParameter.FAN_IN"/>
			<input>
				<port id="0">
					<dim>1</dim>
					<dim>256</dim>
					<dim>13</dim>
					<dim>13</dim>
				</port>
			</input>
			<output>
				<port id="2">
					<dim>1</dim>
					<dim>256</dim>
					<dim>13</dim>
					<dim>13</dim>
				</port>
			</output>
			<blobs>
				<weights offset="1216048" size="1024"/>
			</blobs>
		</layer>
		<layer id="72" name="res_4_block2_conv_dw_conv2d" precision="FP32" type="Convolution">
			<data dilations="1,1" group="256" kernel="3,3" output="256" pads_begin="1,1" pads_end="1,1" strides="1,1"/>
			<input>
				<port id="0">
					<dim>1</dim>
					<dim>256</dim>
					<dim>13</dim>
					<dim>13</dim>
				</port>
			</input>
			<output>
				<port id="3">
					<dim>1</dim>
					<dim>256</dim>
					<dim>13</dim>
					<dim>13</dim>
				</port>
			</output>
			<blobs>
				<weights offset="1217072" size="9216"/>
				<biases offset="1226288" size="1024"/>
			</blobs>
		</layer>
		<layer id="73" name="res_4_block2_conv_dw_relu" precision="FP32" type="PReLU">
			<data channel_shared="0" filler_type="constant" filler_value="0" max="1" mean="0" min="0" sparse="-1" std="0" variance_norm="caffe.FillerParameter.FAN_IN"/>
			<input>
				<port id="0">
					<dim>1</dim>
					<dim>256</dim>
					<dim>13</dim>
					<dim>13</dim>
				</port>
			</input>
			<output>
				<port id="2">
					<dim>1</dim>
					<dim>256</dim>
					<dim>13</dim>
					<dim>13</dim>
				</port>
			</output>
			<blobs>
				<weights offset="1227312" size="1024"/>
			</blobs>
		</layer>
		<layer id="74" name="res_4_block2_conv_proj_conv2d" precision="FP32" type="Convolution">
			<data dilations="1,1" group="1" kernel="1,1" output="128" pads_begin="0,0" pads_end="0,0" strides="1,1"/>
			<input>
				<port id="0">
					<dim>1</dim>
					<dim>256</dim>
					<dim>13</dim>
					<dim>13</dim>
				</port>
			</input>
			<output>
				<port id="3">
					<dim>1</dim>
					<dim>128</dim>
					<dim>13</dim>
					<dim>13</dim>
				</port>
			</output>
			<blobs>
				<weights offset="1228336" size="131072"/>
				<biases offset="1359408" size="512"/>
			</blobs>
		</layer>
		<layer id="75" name="_plus9" precision="FP32" type="Eltwise">
			<data operation="sum"/>
			<input>
				<port id="0">
					<dim>1</dim>
					<dim>128</dim>
					<dim>13</dim>
					<dim>13</dim>
				</port>
				<port id="1">
					<dim>1</dim>
					<dim>128</dim>
					<dim>13</dim>
					<dim>13</dim>
				</port>
			</input>
			<output>
				<port id="2">
					<dim>1</dim>
					<dim>128</dim>
					<dim>13</dim>
					<dim>13</dim>
				</port>
			</output>
		</layer>
		<layer id="76" name="conv_44_block0_conv_sep_conv2d" precision="FP32" type="Convolution">
			<data dilations="1,1" group="1" kernel="1,1" output="180" pads_begin="0,0" pads_end="0,0" strides="1,1"/>
			<input>
				<port id="0">
					<dim>1</dim>
					<dim>128</dim>
					<dim>13</dim>
					<dim>13</dim>
				</port>
			</input>
			<output>
				<port id="3">
					<dim>1</dim>
					<dim>180</dim>
					<dim>13</dim>
					<dim>13</dim>
				</port>
			</output>
			<blobs>
				<weights offset="1359920" size="92160"/>
				<biases offset="1452080" size="720"/>
			</blobs>
		</layer>
		<layer id="77" name="conv_44_block0_conv_sep_relu" precision="FP32" type="PReLU">
			<data channel_shared="0" filler_type="constant" filler_value="0" max="1" mean="0" min="0" sparse="-1" std="0" variance_norm="caffe.FillerParameter.FAN_IN"/>
			<input>
				<port id="0">
					<dim>1</dim>
					<dim>180</dim>
					<dim>13</dim>
					<dim>13</dim>
				</port>
			</input>
			<output>
				<port id="2">
					<dim>1</dim>
					<dim>180</dim>
					<dim>13</dim>
					<dim>13</dim>
				</port>
			</output>
			<blobs>
				<weights offset="1452800" size="720"/>
			</blobs>
		</layer>
		<layer id="78" name="conv_44_block0_conv_dw_conv2d" precision="FP32" type="Convolution">
			<data dilations="1,1" group="180" kernel="5,5" output="180" pads_begin="2,2" pads_end="2,2" strides="1,1"/>
			<input>
				<port id="0">
					<dim>1</dim>
					<dim>180</dim>
					<dim>13</dim>
					<dim>13</dim>
				</port>
			</input>
			<output>
				<port id="3">
					<dim>1</dim>
					<dim>180</dim>
					<dim>13</dim>
					<dim>13</dim>
				</port>
			</output>
			<blobs>
				<weights offset="1453520" size="18000"/>
				<biases offset="1471520" size="720"/>
			</blobs>
		</layer>
		<layer id="79" name="conv_44_block0_conv_dw_relu" precision="FP32" type="PReLU">
			<data channel_shared="0" filler_type="constant" filler_value="0" max="1" mean="0" min="0" sparse="-1" std="0" variance_norm="caffe.FillerParameter.FAN_IN"/>
			<input>
				<port id="0">
					<dim>1</dim>
					<dim>180</dim>
					<dim>13</dim>
					<dim>13</dim>
				</port>
			</input>
			<output>
				<port id="2">
					<dim>1</dim>
					<dim>180</dim>
					<dim>13</dim>
					<dim>13</dim>
				</port>
			</output>
			<blobs>
				<weights offset="1472240" size="720"/>
			</blobs>
		</layer>
		<layer id="80" name="conv_44_block0_conv_proj_conv2d" precision="FP32" type="Convolution">
			<data dilations="1,1" group="1" kernel="1,1" output="128" pads_begin="0,0" pads_end="0,0" strides="1,1"/>
			<input>
				<port id="0">
					<dim>1</dim>
					<dim>180</dim>
					<dim>13</dim>
					<dim>13</dim>
				</port>
			</input>
			<output>
				<port id="3">
					<dim>1</dim>
					<dim>128</dim>
					<dim>13</dim>
					<dim>13</dim>
				</port>
			</output>
			<blobs>
				<weights offset="1472960" size="92160"/>
				<biases offset="1565120" size="512"/>
			</blobs>
		</layer>
		<layer id="81" name="_plus10" precision="FP32" type="Eltwise">
			<data operation="sum"/>
			<input>
				<port id="0">
					<dim>1</dim>
					<dim>128</dim>
					<dim>13</dim>
					<dim>13</dim>
				</port>
				<port id="1">
					<dim>1</dim>
					<dim>128</dim>
					<dim>13</dim>
					<dim>13</dim>
				</port>
			</input>
			<output>
				<port id="2">
					<dim>1</dim>
					<dim>128</dim>
					<dim>13</dim>
					<dim>13</dim>
				</port>
			</output>
		</layer>
		<layer id="82" name="conv_44_block1_conv_sep_conv2d" precision="FP32" type="Convolution">
			<data dilations="1,1" group="1" kernel="1,1" output="180" pads_begin="0,0" pads_end="0,0" strides="1,1"/>
			<input>
				<port id="0">
					<dim>1</dim>
					<dim>128</dim>
					<dim>13</dim>
					<dim>13</dim>
				</port>
			</input>
			<output>
				<port id="3">
					<dim>1</dim>
					<dim>180</dim>
					<dim>13</dim>
					<dim>13</dim>
				</port>
			</output>
			<blobs>
				<weights offset="1565632" size="92160"/>
				<biases offset="1657792" size="720"/>
			</blobs>
		</layer>
		<layer id="83" name="conv_44_block1_conv_sep_relu" precision="FP32" type="PReLU">
			<data channel_shared="0" filler_type="constant" filler_value="0" max="1" mean="0" min="0" sparse="-1" std="0" variance_norm="caffe.FillerParameter.FAN_IN"/>
			<input>
				<port id="0">
					<dim>1</dim>
					<dim>180</dim>
					<dim>13</dim>
					<dim>13</dim>
				</port>
			</input>
			<output>
				<port id="2">
					<dim>1</dim>
					<dim>180</dim>
					<dim>13</dim>
					<dim>13</dim>
				</port>
			</output>
			<blobs>
				<weights offset="1658512" size="720"/>
			</blobs>
		</layer>
		<layer id="84" name="conv_44_block1_conv_dw_conv2d" precision="FP32" type="Convolution">
			<data dilations="1,1" group="180" kernel="5,5" output="180" pads_begin="2,2" pads_end="2,2" strides="1,1"/>
			<input>
				<port id="0">
					<dim>1</dim>
					<dim>180</dim>
					<dim>13</dim>
					<dim>13</dim>
				</port>
			</input>
			<output>
				<port id="3">
					<dim>1</dim>
					<dim>180</dim>
					<dim>13</dim>
					<dim>13</dim>
				</port>
			</output>
			<blobs>
				<weights offset="1659232" size="18000"/>
				<biases offset="1677232" size="720"/>
			</blobs>
		</layer>
		<layer id="85" name="conv_44_block1_conv_dw_relu" precision="FP32" type="PReLU">
			<data channel_shared="0" filler_type="constant" filler_value="0" max="1" mean="0" min="0" sparse="-1" std="0" variance_norm="caffe.FillerParameter.FAN_IN"/>
			<input>
				<port id="0">
					<dim>1</dim>
					<dim>180</dim>
					<dim>13</dim>
					<dim>13</dim>
				</port>
			</input>
			<output>
				<port id="2">
					<dim>1</dim>
					<dim>180</dim>
					<dim>13</dim>
					<dim>13</dim>
				</port>
			</output>
			<blobs>
				<weights offset="1677952" size="720"/>
			</blobs>
		</layer>
		<layer id="86" name="conv_44_block1_conv_proj_conv2d" precision="FP32" type="Convolution">
			<data dilations="1,1" group="1" kernel="1,1" output="128" pads_begin="0,0" pads_end="0,0" strides="1,1"/>
			<input>
				<port id="0">
					<dim>1</dim>
					<dim>180</dim>
					<dim>13</dim>
					<dim>13</dim>
				</port>
			</input>
			<output>
				<port id="3">
					<dim>1</dim>
					<dim>128</dim>
					<dim>13</dim>
					<dim>13</dim>
				</port>
			</output>
			<blobs>
				<weights offset="1678672" size="92160"/>
				<biases offset="1770832" size="512"/>
			</blobs>
		</layer>
		<layer id="87" name="_plus11" precision="FP32" type="Eltwise">
			<data operation="sum"/>
			<input>
				<port id="0">
					<dim>1</dim>
					<dim>128</dim>
					<dim>13</dim>
					<dim>13</dim>
				</port>
				<port id="1">
					<dim>1</dim>
					<dim>128</dim>
					<dim>13</dim>
					<dim>13</dim>
				</port>
			</input>
			<output>
				<port id="2">
					<dim>1</dim>
					<dim>128</dim>
					<dim>13</dim>
					<dim>13</dim>
				</port>
			</output>
		</layer>
		<layer id="88" name="conv_44_block2_conv_sep_conv2d" precision="FP32" type="Convolution">
			<data dilations="1,1" group="1" kernel="1,1" output="180" pads_begin="0,0" pads_end="0,0" strides="1,1"/>
			<input>
				<port id="0">
					<dim>1</dim>
					<dim>128</dim>
					<dim>13</dim>
					<dim>13</dim>
				</port>
			</input>
			<output>
				<port id="3">
					<dim>1</dim>
					<dim>180</dim>
					<dim>13</dim>
					<dim>13</dim>
				</port>
			</output>
			<blobs>
				<weights offset="1771344" size="92160"/>
				<biases offset="1863504" size="720"/>
			</blobs>
		</layer>
		<layer id="89" name="conv_44_block2_conv_sep_relu" precision="FP32" type="PReLU">
			<data channel_shared="0" filler_type="constant" filler_value="0" max="1" mean="0" min="0" sparse="-1" std="0" variance_norm="caffe.FillerParameter.FAN_IN"/>
			<input>
				<port id="0">
					<dim>1</dim>
					<dim>180</dim>
					<dim>13</dim>
					<dim>13</dim>
				</port>
			</input>
			<output>
				<port id="2">
					<dim>1</dim>
					<dim>180</dim>
					<dim>13</dim>
					<dim>13</dim>
				</port>
			</output>
			<blobs>
				<weights offset="1864224" size="720"/>
			</blobs>
		</layer>
		<layer id="90" name="conv_44_block2_conv_dw_conv2d" precision="FP32" type="Convolution">
			<data dilations="1,1" group="180" kernel="5,5" output="180" pads_begin="2,2" pads_end="2,2" strides="1,1"/>
			<input>
				<port id="0">
					<dim>1</dim>
					<dim>180</dim>
					<dim>13</dim>
					<dim>13</dim>
				</port>
			</input>
			<output>
				<port id="3">
					<dim>1</dim>
					<dim>180</dim>
					<dim>13</dim>
					<dim>13</dim>
				</port>
			</output>
			<blobs>
				<weights offset="1864944" size="18000"/>
				<biases offset="1882944" size="720"/>
			</blobs>
		</layer>
		<layer id="91" name="conv_44_block2_conv_dw_relu" precision="FP32" type="PReLU">
			<data channel_shared="0" filler_type="constant" filler_value="0" max="1" mean="0" min="0" sparse="-1" std="0" variance_norm="caffe.FillerParameter.FAN_IN"/>
			<input>
				<port id="0">
					<dim>1</dim>
					<dim>180</dim>
					<dim>13</dim>
					<dim>13</dim>
				</port>
			</input>
			<output>
				<port id="2">
					<dim>1</dim>
					<dim>180</dim>
					<dim>13</dim>
					<dim>13</dim>
				</port>
			</output>
			<blobs>
				<weights offset="1883664" size="720"/>
			</blobs>
		</layer>
		<layer id="92" name="conv_44_block2_conv_proj_conv2d" precision="FP32" type="Convolution">
			<data dilations="1,1" group="1" kernel="1,1" output="128" pads_begin="0,0" pads_end="0,0" strides="1,1"/>
			<input>
				<port id="0">
					<dim>1</dim>
					<dim>180</dim>
					<dim>13</dim>
					<dim>13</dim>
				</port>
			</input>
			<output>
				<port id="3">
					<dim>1</dim>
					<dim>128</dim>
					<dim>13</dim>
					<dim>13</dim>
				</port>
			</output>
			<blobs>
				<weights offset="1884384" size="92160"/>
				<biases offset="1976544" size="512"/>
			</blobs>
		</layer>
		<layer id="93" name="_plus12" precision="FP32" type="Eltwise">
			<data operation="sum"/>
			<input>
				<port id="0">
					<dim>1</dim>
					<dim>128</dim>
					<dim>13</dim>
					<dim>13</dim>
				</port>
				<port id="1">
					<dim>1</dim>
					<dim>128</dim>
					<dim>13</dim>
					<dim>13</dim>
				</port>
			</input>
			<output>
				<port id="2">
					<dim>1</dim>
					<dim>128</dim>
					<dim>13</dim>
					<dim>13</dim>
				</port>
			</output>
		</layer>
		<layer id="94" name="conv_44_block3_conv_sep_conv2d" precision="FP32" type="Convolution">
			<data dilations="1,1" group="1" kernel="1,1" output="180" pads_begin="0,0" pads_end="0,0" strides="1,1"/>
			<input>
				<port id="0">
					<dim>1</dim>
					<dim>128</dim>
					<dim>13</dim>
					<dim>13</dim>
				</port>
			</input>
			<output>
				<port id="3">
					<dim>1</dim>
					<dim>180</dim>
					<dim>13</dim>
					<dim>13</dim>
				</port>
			</output>
			<blobs>
				<weights offset="1977056" size="92160"/>
				<biases offset="2069216" size="720"/>
			</blobs>
		</layer>
		<layer id="95" name="conv_44_block3_conv_sep_relu" precision="FP32" type="PReLU">
			<data channel_shared="0" filler_type="constant" filler_value="0" max="1" mean="0" min="0" sparse="-1" std="0" variance_norm="caffe.FillerParameter.FAN_IN"/>
			<input>
				<port id="0">
					<dim>1</dim>
					<dim>180</dim>
					<dim>13</dim>
					<dim>13</dim>
				</port>
			</input>
			<output>
				<port id="2">
					<dim>1</dim>
					<dim>180</dim>
					<dim>13</dim>
					<dim>13</dim>
				</port>
			</output>
			<blobs>
				<weights offset="2069936" size="720"/>
			</blobs>
		</layer>
		<layer id="96" name="conv_44_block3_conv_dw_conv2d" precision="FP32" type="Convolution">
			<data dilations="1,1" group="180" kernel="5,5" output="180" pads_begin="2,2" pads_end="2,2" strides="1,1"/>
			<input>
				<port id="0">
					<dim>1</dim>
					<dim>180</dim>
					<dim>13</dim>
					<dim>13</dim>
				</port>
			</input>
			<output>
				<port id="3">
					<dim>1</dim>
					<dim>180</dim>
					<dim>13</dim>
					<dim>13</dim>
				</port>
			</output>
			<blobs>
				<weights offset="2070656" size="18000"/>
				<biases offset="2088656" size="720"/>
			</blobs>
		</layer>
		<layer id="97" name="conv_44_block3_conv_dw_relu" precision="FP32" type="PReLU">
			<data channel_shared="0" filler_type="constant" filler_value="0" max="1" mean="0" min="0" sparse="-1" std="0" variance_norm="caffe.FillerParameter.FAN_IN"/>
			<input>
				<port id="0">
					<dim>1</dim>
					<dim>180</dim>
					<dim>13</dim>
					<dim>13</dim>
				</port>
			</input>
			<output>
				<port id="2">
					<dim>1</dim>
					<dim>180</dim>
					<dim>13</dim>
					<dim>13</dim>
				</port>
			</output>
			<blobs>
				<weights offset="2089376" size="720"/>
			</blobs>
		</layer>
		<layer id="98" name="conv_44_block3_conv_proj_conv2d" precision="FP32" type="Convolution">
			<data dilations="1,1" group="1" kernel="1,1" output="128" pads_begin="0,0" pads_end="0,0" strides="1,1"/>
			<input>
				<port id="0">
					<dim>1</dim>
					<dim>180</dim>
					<dim>13</dim>
					<dim>13</dim>
				</port>
			</input>
			<output>
				<port id="3">
					<dim>1</dim>
					<dim>128</dim>
					<dim>13</dim>
					<dim>13</dim>
				</port>
			</output>
			<blobs>
				<weights offset="2090096" size="92160"/>
				<biases offset="2182256" size="512"/>
			</blobs>
		</layer>
		<layer id="99" name="_plus13" precision="FP32" type="Eltwise">
			<data operation="sum"/>
			<input>
				<port id="0">
					<dim>1</dim>
					<dim>128</dim>
					<dim>13</dim>
					<dim>13</dim>
				</port>
				<port id="1">
					<dim>1</dim>
					<dim>128</dim>
					<dim>13</dim>
					<dim>13</dim>
				</port>
			</input>
			<output>
				<port id="2">
					<dim>1</dim>
					<dim>128</dim>
					<dim>13</dim>
					<dim>13</dim>
				</port>
			</output>
		</layer>
		<layer id="100" name="conv_44_block4_conv_sep_conv2d" precision="FP32" type="Convolution">
			<data dilations="1,1" group="1" kernel="1,1" output="180" pads_begin="0,0" pads_end="0,0" strides="1,1"/>
			<input>
				<port id="0">
					<dim>1</dim>
					<dim>128</dim>
					<dim>13</dim>
					<dim>13</dim>
				</port>
			</input>
			<output>
				<port id="3">
					<dim>1</dim>
					<dim>180</dim>
					<dim>13</dim>
					<dim>13</dim>
				</port>
			</output>
			<blobs>
				<weights offset="2182768" size="92160"/>
				<biases offset="2274928" size="720"/>
			</blobs>
		</layer>
		<layer id="101" name="conv_44_block4_conv_sep_relu" precision="FP32" type="PReLU">
			<data channel_shared="0" filler_type="constant" filler_value="0" max="1" mean="0" min="0" sparse="-1" std="0" variance_norm="caffe.FillerParameter.FAN_IN"/>
			<input>
				<port id="0">
					<dim>1</dim>
					<dim>180</dim>
					<dim>13</dim>
					<dim>13</dim>
				</port>
			</input>
			<output>
				<port id="2">
					<dim>1</dim>
					<dim>180</dim>
					<dim>13</dim>
					<dim>13</dim>
				</port>
			</output>
			<blobs>
				<weights offset="2275648" size="720"/>
			</blobs>
		</layer>
		<layer id="102" name="conv_44_block4_conv_dw_conv2d" precision="FP32" type="Convolution">
			<data dilations="1,1" group="180" kernel="5,5" output="180" pads_begin="2,2" pads_end="2,2" strides="1,1"/>
			<input>
				<port id="0">
					<dim>1</dim>
					<dim>180</dim>
					<dim>13</dim>
					<dim>13</dim>
				</port>
			</input>
			<output>
				<port id="3">
					<dim>1</dim>
					<dim>180</dim>
					<dim>13</dim>
					<dim>13</dim>
				</port>
			</output>
			<blobs>
				<weights offset="2276368" size="18000"/>
				<biases offset="2294368" size="720"/>
			</blobs>
		</layer>
		<layer id="103" name="conv_44_block4_conv_dw_relu" precision="FP32" type="PReLU">
			<data channel_shared="0" filler_type="constant" filler_value="0" max="1" mean="0" min="0" sparse="-1" std="0" variance_norm="caffe.FillerParameter.FAN_IN"/>
			<input>
				<port id="0">
					<dim>1</dim>
					<dim>180</dim>
					<dim>13</dim>
					<dim>13</dim>
				</port>
			</input>
			<output>
				<port id="2">
					<dim>1</dim>
					<dim>180</dim>
					<dim>13</dim>
					<dim>13</dim>
				</port>
			</output>
			<blobs>
				<weights offset="2295088" size="720"/>
			</blobs>
		</layer>
		<layer id="104" name="conv_44_block4_conv_proj_conv2d" precision="FP32" type="Convolution">
			<data dilations="1,1" group="1" kernel="1,1" output="128" pads_begin="0,0" pads_end="0,0" strides="1,1"/>
			<input>
				<port id="0">
					<dim>1</dim>
					<dim>180</dim>
					<dim>13</dim>
					<dim>13</dim>
				</port>
			</input>
			<output>
				<port id="3">
					<dim>1</dim>
					<dim>128</dim>
					<dim>13</dim>
					<dim>13</dim>
				</port>
			</output>
			<blobs>
				<weights offset="2295808" size="92160"/>
				<biases offset="2387968" size="512"/>
			</blobs>
		</layer>
		<layer id="105" name="_plus14" precision="FP32" type="Eltwise">
			<data operation="sum"/>
			<input>
				<port id="0">
					<dim>1</dim>
					<dim>128</dim>
					<dim>13</dim>
					<dim>13</dim>
				</port>
				<port id="1">
					<dim>1</dim>
					<dim>128</dim>
					<dim>13</dim>
					<dim>13</dim>
				</port>
			</input>
			<output>
				<port id="2">
					<dim>1</dim>
					<dim>128</dim>
					<dim>13</dim>
					<dim>13</dim>
				</port>
			</output>
		</layer>
		<layer id="106" name="conv_44_block5_conv_sep_conv2d" precision="FP32" type="Convolution">
			<data dilations="1,1" group="1" kernel="1,1" output="180" pads_begin="0,0" pads_end="0,0" strides="1,1"/>
			<input>
				<port id="0">
					<dim>1</dim>
					<dim>128</dim>
					<dim>13</dim>
					<dim>13</dim>
				</port>
			</input>
			<output>
				<port id="3">
					<dim>1</dim>
					<dim>180</dim>
					<dim>13</dim>
					<dim>13</dim>
				</port>
			</output>
			<blobs>
				<weights offset="2388480" size="92160"/>
				<biases offset="2480640" size="720"/>
			</blobs>
		</layer>
		<layer id="107" name="conv_44_block5_conv_sep_relu" precision="FP32" type="PReLU">
			<data channel_shared="0" filler_type="constant" filler_value="0" max="1" mean="0" min="0" sparse="-1" std="0" variance_norm="caffe.FillerParameter.FAN_IN"/>
			<input>
				<port id="0">
					<dim>1</dim>
					<dim>180</dim>
					<dim>13</dim>
					<dim>13</dim>
				</port>
			</input>
			<output>
				<port id="2">
					<dim>1</dim>
					<dim>180</dim>
					<dim>13</dim>
					<dim>13</dim>
				</port>
			</output>
			<blobs>
				<weights offset="2481360" size="720"/>
			</blobs>
		</layer>
		<layer id="108" name="conv_44_block5_conv_dw_conv2d" precision="FP32" type="Convolution">
			<data dilations="1,1" group="180" kernel="5,5" output="180" pads_begin="2,2" pads_end="2,2" strides="1,1"/>
			<input>
				<port id="0">
					<dim>1</dim>
					<dim>180</dim>
					<dim>13</dim>
					<dim>13</dim>
				</port>
			</input>
			<output>
				<port id="3">
					<dim>1</dim>
					<dim>180</dim>
					<dim>13</dim>
					<dim>13</dim>
				</port>
			</output>
			<blobs>
				<weights offset="2482080" size="18000"/>
				<biases offset="2500080" size="720"/>
			</blobs>
		</layer>
		<layer id="109" name="conv_44_block5_conv_dw_relu" precision="FP32" type="PReLU">
			<data channel_shared="0" filler_type="constant" filler_value="0" max="1" mean="0" min="0" sparse="-1" std="0" variance_norm="caffe.FillerParameter.FAN_IN"/>
			<input>
				<port id="0">
					<dim>1</dim>
					<dim>180</dim>
					<dim>13</dim>
					<dim>13</dim>
				</port>
			</input>
			<output>
				<port id="2">
					<dim>1</dim>
					<dim>180</dim>
					<dim>13</dim>
					<dim>13</dim>
				</port>
			</output>
			<blobs>
				<weights offset="2500800" size="720"/>
			</blobs>
		</layer>
		<layer id="110" name="conv_44_block5_conv_proj_conv2d" precision="FP32" type="Convolution">
			<data dilations="1,1" group="1" kernel="1,1" output="128" pads_begin="0,0" pads_end="0,0" strides="1,1"/>
			<input>
				<port id="0">
					<dim>1</dim>
					<dim>180</dim>
					<dim>13</dim>
					<dim>13</dim>
				</port>
			</input>
			<output>
				<port id="3">
					<dim>1</dim>
					<dim>128</dim>
					<dim>13</dim>
					<dim>13</dim>
				</port>
			</output>
			<blobs>
				<weights offset="2501520" size="92160"/>
				<biases offset="2593680" size="512"/>
			</blobs>
		</layer>
		<layer id="111" name="_plus15" precision="FP32" type="Eltwise">
			<data operation="sum"/>
			<input>
				<port id="0">
					<dim>1</dim>
					<dim>128</dim>
					<dim>13</dim>
					<dim>13</dim>
				</port>
				<port id="1">
					<dim>1</dim>
					<dim>128</dim>
					<dim>13</dim>
					<dim>13</dim>
				</port>
			</input>
			<output>
				<port id="2">
					<dim>1</dim>
					<dim>128</dim>
					<dim>13</dim>
					<dim>13</dim>
				</port>
			</output>
		</layer>
		<layer id="112" name="conv_44_block6_conv_sep_conv2d" precision="FP32" type="Convolution">
			<data dilations="1,1" group="1" kernel="1,1" output="180" pads_begin="0,0" pads_end="0,0" strides="1,1"/>
			<input>
				<port id="0">
					<dim>1</dim>
					<dim>128</dim>
					<dim>13</dim>
					<dim>13</dim>
				</port>
			</input>
			<output>
				<port id="3">
					<dim>1</dim>
					<dim>180</dim>
					<dim>13</dim>
					<dim>13</dim>
				</port>
			</output>
			<blobs>
				<weights offset="2594192" size="92160"/>
				<biases offset="2686352" size="720"/>
			</blobs>
		</layer>
		<layer id="113" name="conv_44_block6_conv_sep_relu" precision="FP32" type="PReLU">
			<data channel_shared="0" filler_type="constant" filler_value="0" max="1" mean="0" min="0" sparse="-1" std="0" variance_norm="caffe.FillerParameter.FAN_IN"/>
			<input>
				<port id="0">
					<dim>1</dim>
					<dim>180</dim>
					<dim>13</dim>
					<dim>13</dim>
				</port>
			</input>
			<output>
				<port id="2">
					<dim>1</dim>
					<dim>180</dim>
					<dim>13</dim>
					<dim>13</dim>
				</port>
			</output>
			<blobs>
				<weights offset="2687072" size="720"/>
			</blobs>
		</layer>
		<layer id="114" name="conv_44_block6_conv_dw_conv2d" precision="FP32" type="Convolution">
			<data dilations="1,1" group="180" kernel="5,5" output="180" pads_begin="2,2" pads_end="2,2" strides="1,1"/>
			<input>
				<port id="0">
					<dim>1</dim>
					<dim>180</dim>
					<dim>13</dim>
					<dim>13</dim>
				</port>
			</input>
			<output>
				<port id="3">
					<dim>1</dim>
					<dim>180</dim>
					<dim>13</dim>
					<dim>13</dim>
				</port>
			</output>
			<blobs>
				<weights offset="2687792" size="18000"/>
				<biases offset="2705792" size="720"/>
			</blobs>
		</layer>
		<layer id="115" name="conv_44_block6_conv_dw_relu" precision="FP32" type="PReLU">
			<data channel_shared="0" filler_type="constant" filler_value="0" max="1" mean="0" min="0" sparse="-1" std="0" variance_norm="caffe.FillerParameter.FAN_IN"/>
			<input>
				<port id="0">
					<dim>1</dim>
					<dim>180</dim>
					<dim>13</dim>
					<dim>13</dim>
				</port>
			</input>
			<output>
				<port id="2">
					<dim>1</dim>
					<dim>180</dim>
					<dim>13</dim>
					<dim>13</dim>
				</port>
			</output>
			<blobs>
				<weights offset="2706512" size="720"/>
			</blobs>
		</layer>
		<layer id="116" name="conv_44_block6_conv_proj_conv2d" precision="FP32" type="Convolution">
			<data dilations="1,1" group="1" kernel="1,1" output="128" pads_begin="0,0" pads_end="0,0" strides="1,1"/>
			<input>
				<port id="0">
					<dim>1</dim>
					<dim>180</dim>
					<dim>13</dim>
					<dim>13</dim>
				</port>
			</input>
			<output>
				<port id="3">
					<dim>1</dim>
					<dim>128</dim>
					<dim>13</dim>
					<dim>13</dim>
				</port>
			</output>
			<blobs>
				<weights offset="2707232" size="92160"/>
				<biases offset="2799392" size="512"/>
			</blobs>
		</layer>
		<layer id="117" name="_plus16" precision="FP32" type="Eltwise">
			<data operation="sum"/>
			<input>
				<port id="0">
					<dim>1</dim>
					<dim>128</dim>
					<dim>13</dim>
					<dim>13</dim>
				</port>
				<port id="1">
					<dim>1</dim>
					<dim>128</dim>
					<dim>13</dim>
					<dim>13</dim>
				</port>
			</input>
			<output>
				<port id="2">
					<dim>1</dim>
					<dim>128</dim>
					<dim>13</dim>
					<dim>13</dim>
				</port>
			</output>
		</layer>
		<layer id="118" name="dconv_45_conv_sep_conv2d" precision="FP32" type="Convolution">
			<data dilations="1,1" group="1" kernel="1,1" output="180" pads_begin="0,0" pads_end="0,0" strides="1,1"/>
			<input>
				<port id="0">
					<dim>1</dim>
					<dim>128</dim>
					<dim>13</dim>
					<dim>13</dim>
				</port>
			</input>
			<output>
				<port id="3">
					<dim>1</dim>
					<dim>180</dim>
					<dim>13</dim>
					<dim>13</dim>
				</port>
			</output>
			<blobs>
				<weights offset="2799904" size="92160"/>
				<biases offset="2892064" size="720"/>
			</blobs>
		</layer>
		<layer id="119" name="dconv_45_conv_sep_relu" precision="FP32" type="PReLU">
			<data channel_shared="0" filler_type="constant" filler_value="0" max="1" mean="0" min="0" sparse="-1" std="0" variance_norm="caffe.FillerParameter.FAN_IN"/>
			<input>
				<port id="0">
					<dim>1</dim>
					<dim>180</dim>
					<dim>13</dim>
					<dim>13</dim>
				</port>
			</input>
			<output>
				<port id="2">
					<dim>1</dim>
					<dim>180</dim>
					<dim>13</dim>
					<dim>13</dim>
				</port>
			</output>
			<blobs>
				<weights offset="2892784" size="720"/>
			</blobs>
		</layer>
		<layer id="120" name="dconv_45_conv_dw_conv2d" precision="FP32" type="Convolution">
			<data dilations="1,1" group="180" kernel="5,5" output="180" pads_begin="1,1" pads_end="1,1" strides="1,1"/>
			<input>
				<port id="0">
					<dim>1</dim>
					<dim>180</dim>
					<dim>13</dim>
					<dim>13</dim>
				</port>
			</input>
			<output>
				<port id="3">
					<dim>1</dim>
					<dim>180</dim>
					<dim>11</dim>
					<dim>11</dim>
				</port>
			</output>
			<blobs>
				<weights offset="2893504" size="18000"/>
				<biases offset="2911504" size="720"/>
			</blobs>
		</layer>
		<layer id="121" name="dconv_45_conv_dw_relu" precision="FP32" type="PReLU">
			<data channel_shared="0" filler_type="constant" filler_value="0" max="1" mean="0" min="0" sparse="-1" std="0" variance_norm="caffe.FillerParameter.FAN_IN"/>
			<input>
				<port id="0">
					<dim>1</dim>
					<dim>180</dim>
					<dim>11</dim>
					<dim>11</dim>
				</port>
			</input>
			<output>
				<port id="2">
					<dim>1</dim>
					<dim>180</dim>
					<dim>11</dim>
					<dim>11</dim>
				</port>
			</output>
			<blobs>
				<weights offset="2912224" size="720"/>
			</blobs>
		</layer>
		<layer id="122" name="dconv_45_conv_proj_conv2d" precision="FP32" type="Convolution">
			<data dilations="1,1" group="1" kernel="1,1" output="128" pads_begin="0,0" pads_end="0,0" strides="1,1"/>
			<input>
				<port id="0">
					<dim>1</dim>
					<dim>180</dim>
					<dim>11</dim>
					<dim>11</dim>
				</port>
			</input>
			<output>
				<port id="3">
					<dim>1</dim>
					<dim>128</dim>
					<dim>11</dim>
					<dim>11</dim>
				</port>
			</output>
			<blobs>
				<weights offset="2912944" size="92160"/>
				<biases offset="3005104" size="512"/>
			</blobs>
		</layer>
		<layer id="123" name="res_5_block0_conv_sep_conv2d" precision="FP32" type="Convolution">
			<data dilations="1,1" group="1" kernel="1,1" output="256" pads_begin="0,0" pads_end="0,0" strides="1,1"/>
			<input>
				<port id="0">
					<dim>1</dim>
					<dim>128</dim>
					<dim>11</dim>
					<dim>11</dim>
				</port>
			</input>
			<output>
				<port id="3">
					<dim>1</dim>
					<dim>256</dim>
					<dim>11</dim>
					<dim>11</dim>
				</port>
			</output>
			<blobs>
				<weights offset="3005616" size="131072"/>
				<biases offset="3136688" size="1024"/>
			</blobs>
		</layer>
		<layer id="124" name="res_5_block0_conv_sep_relu" precision="FP32" type="PReLU">
			<data channel_shared="0" filler_type="constant" filler_value="0" max="1" mean="0" min="0" sparse="-1" std="0" variance_norm="caffe.FillerParameter.FAN_IN"/>
			<input>
				<port id="0">
					<dim>1</dim>
					<dim>256</dim>
					<dim>11</dim>
					<dim>11</dim>
				</port>
			</input>
			<output>
				<port id="2">
					<dim>1</dim>
					<dim>256</dim>
					<dim>11</dim>
					<dim>11</dim>
				</port>
			</output>
			<blobs>
				<weights offset="3137712" size="1024"/>
			</blobs>
		</layer>
		<layer id="125" name="res_5_block0_conv_dw_conv2d" precision="FP32" type="Convolution">
			<data dilations="1,1" group="256" kernel="5,5" output="256" pads_begin="2,2" pads_end="2,2" strides="1,1"/>
			<input>
				<port id="0">
					<dim>1</dim>
					<dim>256</dim>
					<dim>11</dim>
					<dim>11</dim>
				</port>
			</input>
			<output>
				<port id="3">
					<dim>1</dim>
					<dim>256</dim>
					<dim>11</dim>
					<dim>11</dim>
				</port>
			</output>
			<blobs>
				<weights offset="3138736" size="25600"/>
				<biases offset="3164336" size="1024"/>
			</blobs>
		</layer>
		<layer id="126" name="res_5_block0_conv_dw_relu" precision="FP32" type="PReLU">
			<data channel_shared="0" filler_type="constant" filler_value="0" max="1" mean="0" min="0" sparse="-1" std="0" variance_norm="caffe.FillerParameter.FAN_IN"/>
			<input>
				<port id="0">
					<dim>1</dim>
					<dim>256</dim>
					<dim>11</dim>
					<dim>11</dim>
				</port>
			</input>
			<output>
				<port id="2">
					<dim>1</dim>
					<dim>256</dim>
					<dim>11</dim>
					<dim>11</dim>
				</port>
			</output>
			<blobs>
				<weights offset="3165360" size="1024"/>
			</blobs>
		</layer>
		<layer id="127" name="res_5_block0_conv_proj_conv2d" precision="FP32" type="Convolution">
			<data dilations="1,1" group="1" kernel="1,1" output="128" pads_begin="0,0" pads_end="0,0" strides="1,1"/>
			<input>
				<port id="0">
					<dim>1</dim>
					<dim>256</dim>
					<dim>11</dim>
					<dim>11</dim>
				</port>
			</input>
			<output>
				<port id="3">
					<dim>1</dim>
					<dim>128</dim>
					<dim>11</dim>
					<dim>11</dim>
				</port>
			</output>
			<blobs>
				<weights offset="3166384" size="131072"/>
				<biases offset="3297456" size="512"/>
			</blobs>
		</layer>
		<layer id="128" name="_plus17" precision="FP32" type="Eltwise">
			<data operation="sum"/>
			<input>
				<port id="0">
					<dim>1</dim>
					<dim>128</dim>
					<dim>11</dim>
					<dim>11</dim>
				</port>
				<port id="1">
					<dim>1</dim>
					<dim>128</dim>
					<dim>11</dim>
					<dim>11</dim>
				</port>
			</input>
			<output>
				<port id="2">
					<dim>1</dim>
					<dim>128</dim>
					<dim>11</dim>
					<dim>11</dim>
				</port>
			</output>
		</layer>
		<layer id="129" name="res_5_block1_conv_sep_conv2d" precision="FP32" type="Convolution">
			<data dilations="1,1" group="1" kernel="1,1" output="256" pads_begin="0,0" pads_end="0,0" strides="1,1"/>
			<input>
				<port id="0">
					<dim>1</dim>
					<dim>128</dim>
					<dim>11</dim>
					<dim>11</dim>
				</port>
			</input>
			<output>
				<port id="3">
					<dim>1</dim>
					<dim>256</dim>
					<dim>11</dim>
					<dim>11</dim>
				</port>
			</output>
			<blobs>
				<weights offset="3297968" size="131072"/>
				<biases offset="3429040" size="1024"/>
			</blobs>
		</layer>
		<layer id="130" name="res_5_block1_conv_sep_relu" precision="FP32" type="PReLU">
			<data channel_shared="0" filler_type="constant" filler_value="0" max="1" mean="0" min="0" sparse="-1" std="0" variance_norm="caffe.FillerParameter.FAN_IN"/>
			<input>
				<port id="0">
					<dim>1</dim>
					<dim>256</dim>
					<dim>11</dim>
					<dim>11</dim>
				</port>
			</input>
			<output>
				<port id="2">
					<dim>1</dim>
					<dim>256</dim>
					<dim>11</dim>
					<dim>11</dim>
				</port>
			</output>
			<blobs>
				<weights offset="3430064" size="1024"/>
			</blobs>
		</layer>
		<layer id="131" name="res_5_block1_conv_dw_conv2d" precision="FP32" type="Convolution">
			<data dilations="1,1" group="256" kernel="5,5" output="256" pads_begin="2,2" pads_end="2,2" strides="1,1"/>
			<input>
				<port id="0">
					<dim>1</dim>
					<dim>256</dim>
					<dim>11</dim>
					<dim>11</dim>
				</port>
			</input>
			<output>
				<port id="3">
					<dim>1</dim>
					<dim>256</dim>
					<dim>11</dim>
					<dim>11</dim>
				</port>
			</output>
			<blobs>
				<weights offset="3431088" size="25600"/>
				<biases offset="3456688" size="1024"/>
			</blobs>
		</layer>
		<layer id="132" name="res_5_block1_conv_dw_relu" precision="FP32" type="PReLU">
			<data channel_shared="0" filler_type="constant" filler_value="0" max="1" mean="0" min="0" sparse="-1" std="0" variance_norm="caffe.FillerParameter.FAN_IN"/>
			<input>
				<port id="0">
					<dim>1</dim>
					<dim>256</dim>
					<dim>11</dim>
					<dim>11</dim>
				</port>
			</input>
			<output>
				<port id="2">
					<dim>1</dim>
					<dim>256</dim>
					<dim>11</dim>
					<dim>11</dim>
				</port>
			</output>
			<blobs>
				<weights offset="3457712" size="1024"/>
			</blobs>
		</layer>
		<layer id="133" name="res_5_block1_conv_proj_conv2d" precision="FP32" type="Convolution">
			<data dilations="1,1" group="1" kernel="1,1" output="128" pads_begin="0,0" pads_end="0,0" strides="1,1"/>
			<input>
				<port id="0">
					<dim>1</dim>
					<dim>256</dim>
					<dim>11</dim>
					<dim>11</dim>
				</port>
			</input>
			<output>
				<port id="3">
					<dim>1</dim>
					<dim>128</dim>
					<dim>11</dim>
					<dim>11</dim>
				</port>
			</output>
			<blobs>
				<weights offset="3458736" size="131072"/>
				<biases offset="3589808" size="512"/>
			</blobs>
		</layer>
		<layer id="134" name="_plus18" precision="FP32" type="Eltwise">
			<data operation="sum"/>
			<input>
				<port id="0">
					<dim>1</dim>
					<dim>128</dim>
					<dim>11</dim>
					<dim>11</dim>
				</port>
				<port id="1">
					<dim>1</dim>
					<dim>128</dim>
					<dim>11</dim>
					<dim>11</dim>
				</port>
			</input>
			<output>
				<port id="2">
					<dim>1</dim>
					<dim>128</dim>
					<dim>11</dim>
					<dim>11</dim>
				</port>
			</output>
		</layer>
		<layer id="135" name="conv_6sep_conv2d" precision="FP32" type="Convolution">
			<data dilations="1,1" group="1" kernel="1,1" output="512" pads_begin="0,0" pads_end="0,0" strides="1,1"/>
			<input>
				<port id="0">
					<dim>1</dim>
					<dim>128</dim>
					<dim>11</dim>
					<dim>11</dim>
				</port>
			</input>
			<output>
				<port id="3">
					<dim>1</dim>
					<dim>512</dim>
					<dim>11</dim>
					<dim>11</dim>
				</port>
			</output>
			<blobs>
				<weights offset="3590320" size="262144"/>
				<biases offset="3852464" size="2048"/>
			</blobs>
		</layer>
		<layer id="136" name="conv_6sep_relu" precision="FP32" type="PReLU">
			<data channel_shared="0" filler_type="constant" filler_value="0" max="1" mean="0" min="0" sparse="-1" std="0" variance_norm="caffe.FillerParameter.FAN_IN"/>
			<input>
				<port id="0">
					<dim>1</dim>
					<dim>512</dim>
					<dim>11</dim>
					<dim>11</dim>
				</port>
			</input>
			<output>
				<port id="2">
					<dim>1</dim>
					<dim>512</dim>
					<dim>11</dim>
					<dim>11</dim>
				</port>
			</output>
			<blobs>
				<weights offset="3854512" size="2048"/>
			</blobs>
		</layer>
		<layer id="137" name="conv_6dw7_7_conv2d" precision="FP32" type="Convolution">
			<data dilations="1,1" group="512" kernel="7,7" output="512" pads_begin="0,0" pads_end="0,0" strides="1,1"/>
			<input>
				<port id="0">
					<dim>1</dim>
					<dim>512</dim>
					<dim>11</dim>
					<dim>11</dim>
				</port>
			</input>
			<output>
				<port id="3">
					<dim>1</dim>
					<dim>512</dim>
					<dim>5</dim>
					<dim>5</dim>
				</port>
			</output>
			<blobs>
				<weights offset="3856560" size="100352"/>
				<biases offset="3956912" size="2048"/>
			</blobs>
		</layer>
		<layer id="138" name="pre_fc1" precision="FP32" type="FullyConnected">
			<data out-size="256"/>
			<input>
				<port id="0">
					<dim>1</dim>
					<dim>512</dim>
					<dim>5</dim>
					<dim>5</dim>
				</port>
			</input>
			<output>
				<port id="3">
					<dim>1</dim>
					<dim>256</dim>
				</port>
			</output>
			<blobs>
				<weights offset="3958960" size="13107200"/>
				<biases offset="17066160" size="1024"/>
			</blobs>
		</layer>
	</layers>
	<edges>
		<edge from-layer="0" from-port="0" to-layer="1" to-port="0"/>
		<edge from-layer="1" from-port="1" to-layer="2" to-port="0"/>
		<edge from-layer="2" from-port="3" to-layer="3" to-port="0"/>
		<edge from-layer="3" from-port="2" to-layer="4" to-port="0"/>
		<edge from-layer="4" from-port="3" to-layer="5" to-port="0"/>
		<edge from-layer="5" from-port="2" to-layer="6" to-port="0"/>
		<edge from-layer="6" from-port="3" to-layer="7" to-port="0"/>
		<edge from-layer="7" from-port="2" to-layer="8" to-port="0"/>
		<edge from-layer="8" from-port="3" to-layer="9" to-port="0"/>
		<edge from-layer="9" from-port="2" to-layer="10" to-port="0"/>
		<edge from-layer="10" from-port="3" to-layer="11" to-port="0"/>
		<edge from-layer="11" from-port="3" to-layer="12" to-port="0"/>
		<edge from-layer="12" from-port="2" to-layer="13" to-port="0"/>
		<edge from-layer="13" from-port="3" to-layer="14" to-port="0"/>
		<edge from-layer="14" from-port="2" to-layer="15" to-port="0"/>
		<edge from-layer="15" from-port="3" to-layer="16" to-port="0"/>
		<edge from-layer="10" from-port="3" to-layer="16" to-port="1"/>
		<edge from-layer="16" from-port="2" to-layer="17" to-port="0"/>
		<edge from-layer="17" from-port="3" to-layer="18" to-port="0"/>
		<edge from-layer="18" from-port="2" to-layer="19" to-port="0"/>
		<edge from-layer="19" from-port="3" to-layer="20" to-port="0"/>
		<edge from-layer="20" from-port="2" to-layer="21" to-port="0"/>
		<edge from-layer="21" from-port="3" to-layer="22" to-port="0"/>
		<edge from-layer="16" from-port="2" to-layer="22" to-port="1"/>
		<edge from-layer="22" from-port="2" to-layer="23" to-port="0"/>
		<edge from-layer="23" from-port="3" to-layer="24" to-port="0"/>
		<edge from-layer="24" from-port="2" to-layer="25" to-port="0"/>
		<edge from-layer="25" from-port="3" to-layer="26" to-port="0"/>
		<edge from-layer="26" from-port="2" to-layer="27" to-port="0"/>
		<edge from-layer="27" from-port="3" to-layer="28" to-port="0"/>
		<edge from-layer="22" from-port="2" to-layer="28" to-port="1"/>
		<edge from-layer="28" from-port="2" to-layer="29" to-port="0"/>
		<edge from-layer="29" from-port="3" to-layer="30" to-port="0"/>
		<edge from-layer="30" from-port="2" to-layer="31" to-port="0"/>
		<edge from-layer="31" from-port="3" to-layer="32" to-port="0"/>
		<edge from-layer="32" from-port="2" to-layer="33" to-port="0"/>
		<edge from-layer="33" from-port="3" to-layer="34" to-port="0"/>
		<edge from-layer="28" from-port="2" to-layer="34" to-port="1"/>
		<edge from-layer="34" from-port="2" to-layer="35" to-port="0"/>
		<edge from-layer="35" from-port="3" to-layer="36" to-port="0"/>
		<edge from-layer="36" from-port="2" to-layer="37" to-port="0"/>
		<edge from-layer="37" from-port="3" to-layer="38" to-port="0"/>
		<edge from-layer="38" from-port="2" to-layer="39" to-port="0"/>
		<edge from-layer="39" from-port="3" to-layer="40" to-port="0"/>
		<edge from-layer="34" from-port="2" to-layer="40" to-port="1"/>
		<edge from-layer="40" from-port="2" to-layer="41" to-port="0"/>
		<edge from-layer="41" from-port="3" to-layer="42" to-port="0"/>
		<edge from-layer="42" from-port="2" to-layer="43" to-port="0"/>
		<edge from-layer="43" from-port="3" to-layer="44" to-port="0"/>
		<edge from-layer="44" from-port="2" to-layer="45" to-port="0"/>
		<edge from-layer="45" from-port="3" to-layer="46" to-port="0"/>
		<edge from-layer="40" from-port="2" to-layer="46" to-port="1"/>
		<edge from-layer="46" from-port="2" to-layer="47" to-port="0"/>
		<edge from-layer="47" from-port="3" to-layer="48" to-port="0"/>
		<edge from-layer="48" from-port="2" to-layer="49" to-port="0"/>
		<edge from-layer="49" from-port="3" to-layer="50" to-port="0"/>
		<edge from-layer="50" from-port="2" to-layer="51" to-port="0"/>
		<edge from-layer="51" from-port="3" to-layer="52" to-port="0"/>
		<edge from-layer="46" from-port="2" to-layer="52" to-port="1"/>
		<edge from-layer="52" from-port="2" to-layer="53" to-port="0"/>
		<edge from-layer="53" from-port="3" to-layer="54" to-port="0"/>
		<edge from-layer="54" from-port="2" to-layer="55" to-port="0"/>
		<edge from-layer="55" from-port="3" to-layer="56" to-port="0"/>
		<edge from-layer="56" from-port="2" to-layer="57" to-port="0"/>
		<edge from-layer="57" from-port="3" to-layer="58" to-port="0"/>
		<edge from-layer="58" from-port="3" to-layer="59" to-port="0"/>
		<edge from-layer="59" from-port="2" to-layer="60" to-port="0"/>
		<edge from-layer="60" from-port="3" to-layer="61" to-port="0"/>
		<edge from-layer="61" from-port="2" to-layer="62" to-port="0"/>
		<edge from-layer="62" from-port="3" to-layer="63" to-port="0"/>
		<edge from-layer="57" from-port="3" to-layer="63" to-port="1"/>
		<edge from-layer="63" from-port="2" to-layer="64" to-port="0"/>
		<edge from-layer="64" from-port="3" to-layer="65" to-port="0"/>
		<edge from-layer="65" from-port="2" to-layer="66" to-port="0"/>
		<edge from-layer="66" from-port="3" to-layer="67" to-port="0"/>
		<edge from-layer="67" from-port="2" to-layer="68" to-port="0"/>
		<edge from-layer="68" from-port="3" to-layer="69" to-port="0"/>
		<edge from-layer="63" from-port="2" to-layer="69" to-port="1"/>
		<edge from-layer="69" from-port="2" to-layer="70" to-port="0"/>
		<edge from-layer="70" from-port="3" to-layer="71" to-port="0"/>
		<edge from-layer="71" from-port="2" to-layer="72" to-port="0"/>
		<edge from-layer="72" from-port="3" to-layer="73" to-port="0"/>
		<edge from-layer="73" from-port="2" to-layer="74" to-port="0"/>
		<edge from-layer="74" from-port="3" to-layer="75" to-port="0"/>
		<edge from-layer="69" from-port="2" to-layer="75" to-port="1"/>
		<edge from-layer="75" from-port="2" to-layer="76" to-port="0"/>
		<edge from-layer="76" from-port="3" to-layer="77" to-port="0"/>
		<edge from-layer="77" from-port="2" to-layer="78" to-port="0"/>
		<edge from-layer="78" from-port="3" to-layer="79" to-port="0"/>
		<edge from-layer="79" from-port="2" to-layer="80" to-port="0"/>
		<edge from-layer="80" from-port="3" to-layer="81" to-port="0"/>
		<edge from-layer="75" from-port="2" to-layer="81" to-port="1"/>
		<edge from-layer="81" from-port="2" to-layer="82" to-port="0"/>
		<edge from-layer="82" from-port="3" to-layer="83" to-port="0"/>
		<edge from-layer="83" from-port="2" to-layer="84" to-port="0"/>
		<edge from-layer="84" from-port="3" to-layer="85" to-port="0"/>
		<edge from-layer="85" from-port="2" to-layer="86" to-port="0"/>
		<edge from-layer="86" from-port="3" to-layer="87" to-port="0"/>
		<edge from-layer="81" from-port="2" to-layer="87" to-port="1"/>
		<edge from-layer="87" from-port="2" to-layer="88" to-port="0"/>
		<edge from-layer="88" from-port="3" to-layer="89" to-port="0"/>
		<edge from-layer="89" from-port="2" to-layer="90" to-port="0"/>
		<edge from-layer="90" from-port="3" to-layer="91" to-port="0"/>
		<edge from-layer="91" from-port="2" to-layer="92" to-port="0"/>
		<edge from-layer="92" from-port="3" to-layer="93" to-port="0"/>
		<edge from-layer="87" from-port="2" to-layer="93" to-port="1"/>
		<edge from-layer="93" from-port="2" to-layer="94" to-port="0"/>
		<edge from-layer="94" from-port="3" to-layer="95" to-port="0"/>
		<edge from-layer="95" from-port="2" to-layer="96" to-port="0"/>
		<edge from-layer="96" from-port="3" to-layer="97" to-port="0"/>
		<edge from-layer="97" from-port="2" to-layer="98" to-port="0"/>
		<edge from-layer="98" from-port="3" to-layer="99" to-port="0"/>
		<edge from-layer="93" from-port="2" to-layer="99" to-port="1"/>
		<edge from-layer="99" from-port="2" to-layer="100" to-port="0"/>
		<edge from-layer="100" from-port="3" to-layer="101" to-port="0"/>
		<edge from-layer="101" from-port="2" to-layer="102" to-port="0"/>
		<edge from-layer="102" from-port="3" to-layer="103" to-port="0"/>
		<edge from-layer="103" from-port="2" to-layer="104" to-port="0"/>
		<edge from-layer="104" from-port="3" to-layer="105" to-port="0"/>
		<edge from-layer="99" from-port="2" to-layer="105" to-port="1"/>
		<edge from-layer="105" from-port="2" to-layer="106" to-port="0"/>
		<edge from-layer="106" from-port="3" to-layer="107" to-port="0"/>
		<edge from-layer="107" from-port="2" to-layer="108" to-port="0"/>
		<edge from-layer="108" from-port="3" to-layer="109" to-port="0"/>
		<edge from-layer="109" from-port="2" to-layer="110" to-port="0"/>
		<edge from-layer="110" from-port="3" to-layer="111" to-port="0"/>
		<edge from-layer="105" from-port="2" to-layer="111" to-port="1"/>
		<edge from-layer="111" from-port="2" to-layer="112" to-port="0"/>
		<edge from-layer="112" from-port="3" to-layer="113" to-port="0"/>
		<edge from-layer="113" from-port="2" to-layer="114" to-port="0"/>
		<edge from-layer="114" from-port="3" to-layer="115" to-port="0"/>
		<edge from-layer="115" from-port="2" to-layer="116" to-port="0"/>
		<edge from-layer="116" from-port="3" to-layer="117" to-port="0"/>
		<edge from-layer="111" from-port="2" to-layer="117" to-port="1"/>
		<edge from-layer="117" from-port="2" to-layer="118" to-port="0"/>
		<edge from-layer="118" from-port="3" to-layer="119" to-port="0"/>
		<edge from-layer="119" from-port="2" to-layer="120" to-port="0"/>
		<edge from-layer="120" from-port="3" to-layer="121" to-port="0"/>
		<edge from-layer="121" from-port="2" to-layer="122" to-port="0"/>
		<edge from-layer="122" from-port="3" to-layer="123" to-port="0"/>
		<edge from-layer="123" from-port="3" to-layer="124" to-port="0"/>
		<edge from-layer="124" from-port="2" to-layer="125" to-port="0"/>
		<edge from-layer="125" from-port="3" to-layer="126" to-port="0"/>
		<edge from-layer="126" from-port="2" to-layer="127" to-port="0"/>
		<edge from-layer="127" from-port="3" to-layer="128" to-port="0"/>
		<edge from-layer="122" from-port="3" to-layer="128" to-port="1"/>
		<edge from-layer="128" from-port="2" to-layer="129" to-port="0"/>
		<edge from-layer="129" from-port="3" to-layer="130" to-port="0"/>
		<edge from-layer="130" from-port="2" to-layer="131" to-port="0"/>
		<edge from-layer="131" from-port="3" to-layer="132" to-port="0"/>
		<edge from-layer="132" from-port="2" to-layer="133" to-port="0"/>
		<edge from-layer="133" from-port="3" to-layer="134" to-port="0"/>
		<edge from-layer="128" from-port="2" to-layer="134" to-port="1"/>
		<edge from-layer="134" from-port="2" to-layer="135" to-port="0"/>
		<edge from-layer="135" from-port="3" to-layer="136" to-port="0"/>
		<edge from-layer="136" from-port="2" to-layer="137" to-port="0"/>
		<edge from-layer="137" from-port="3" to-layer="138" to-port="0"/>
	</edges>
	<meta_data>
		<MO_version value="2019.3.0-408-gac8584cb7"/>
		<cli_parameters>
			<blobs_as_inputs value="False"/>
			<data_type value="float"/>
			<disable_resnet_optimization value="False"/>
			<enable_concat_optimization value="False"/>
			<enable_ssd_gluoncv value="False"/>
			<extensions value="DIR"/>
			<framework value="mxnet"/>
			<freeze_placeholder_with_value value="{}"/>
			<generate_experimental_IR_V10 value="False"/>
			<input_model value="DIR/zwnet_model-0000.params"/>
			<input_shape value="[1,3,112,112]"/>
			<keep_quantize_ops_in_IR value="False"/>
			<keep_shape_ops value="False"/>
			<legacy_mxnet_model value="False"/>
			<log_level value="ERROR"/>
			<mean_scale_values value="{}"/>
			<mean_values value="()"/>
			<move_to_preprocess value="False"/>
			<output_dir value="DIR"/>
			<placeholder_shapes value="[  1   3 112 112]"/>
			<reverse_input_channels value="True"/>
			<save_params_from_nd value="False"/>
			<scale_values value="()"/>
			<silent value="False"/>
			<steps value="False"/>
			<version value="False"/>
			<unset unset_cli_parameters="batch, disable_fusing, disable_gfusing, finegrain_fusing, generate_deprecated_IR_V2, input, input_symbol, model_name, nd_prefix_name, output, pretrained_model_name, scale"/>
		</cli_parameters>
	</meta_data>
</net>
